workshop/notebooks/saved_torch_segmentation_model.pt (torch, 4201 bytes, 4 tensors)

weight f4 [16, 1, 3, 3]
0	0x408e7869	4.4521985
1	0x408cc0ba	4.398526
2	0x4089a89d	4.3018327
3	0x4085d54b	4.1822867
4	0x408cccd4	4.4000034
5	0x408a511c	4.322401
6	0x4088cdec	4.275137
7	0x4087eaa1	4.247391
8	0x4074cb94	3.8249254
9	0x40459b40	3.0876007
10	0x404cb6f2	3.198666
11	0x4055444f	3.3322942
12	0x404a0ee4	3.1571589
13	0x4053812b	3.3047588
14	0x4059d097	3.4033563
15	0x405764ad	3.3655198
16	0x404dd297	3.2159784
17	0x406619e2	3.5953298
18	0xc0a6d9b7	-5.2140765
19	0xc098d0e9	-4.7755017
20	0xc09e8798	-4.954052
21	0xc0a84038	-5.257839
22	0xc0a6e34c	-5.215246
23	0xc09b8a97	-4.8606677
24	0xc09cab91	-4.895943
25	0xc09e3adb	-4.9446845
26	0xc09d78cf	-4.920997
27	0x40a15627	5.0417666
28	0x40ac77df	5.3896327
29	0x40a3fe37	5.124782
30	0x40a3379c	5.1005383
31	0x40bb1861	5.846726
32	0x40a3e9a0	5.1222687
33	0x40a707d3	5.219705
34	0x40a4c601	5.1491704
35	0x40a9cf0d	5.3065248
36	0xc05573f2	-3.3352017
37	0xc042cab6	-3.0436225
38	0xc05c48f0	-3.4419518
39	0xc04f52b8	-3.2394238
40	0xc069fea2	-3.6561666
41	0xc05a73fd	-3.4133294
42	0xc0519328	-3.2746067
43	0xc04d2e37	-3.2059457
44	0xc0434769	-3.0512335
45	0xc07a27cf	-3.9086797
46	0xc085d2f8	-4.182003
47	0xc0818c59	-4.0483823
48	0xc08360a1	-4.1055455
49	0xc0833015	-4.0996194
50	0xc085a8ec	-4.1768703
51	0xc07a27f3	-3.9086883
52	0xc086ce42	-4.212678
53	0xc070f14c	-3.7647276
54	0xc08437ed	-4.131827
55	0xc0848c9a	-4.1421633
56	0xc080a985	-4.0206933
57	0xc06dda53	-3.7164505
58	0xc0783dd0	-3.8787727
59	0xc0852deb	-4.161855
60	0xc0842c62	-4.130418
61	0xc08636f5	-4.1942086
62	0xc072870b	-3.7894924
63	0x40820798	4.063427
64	0x40768747	3.8520067
65	0x4080d542	4.0260324
66	0x406efa03	3.7340095
67	0x408b8936	4.3604994
68	0x40869dcf	4.2067637
69	0x4077f937	3.8745859
70	0x408a88fc	4.3292217
71	0x4086331c	4.193739
72	0x40713e9b	3.7694461
73	0x40663e0c	3.597537
74	0x4075df54	3.8417559
75	0x4083a289	4.1135907
76	0x408131b4	4.0373173
77	0x406b07fc	3.6723623
78	0x40708719	3.7582457
79	0x407becd7	3.9363306
80	0x406b6fb9	3.678694
81	0xc072614d	-3.7871888
82	0xc08322d4	-4.0980015
83	0xc078e63c	-3.8890524
84	0xc06785bb	-3.6175373
85	0xc07449d5	-3.8170063
86	0xc082aae6	-4.0833616
87	0xc082457e	-4.070983
88	0xc06d192e	-3.7046618
89	0xc078149b	-3.8762577
90	0x402a520b	2.6612575
91	0x40385a88	2.8805256
92	0x4023ad9b	2.557471
93	0x402cef4d	2.7021058
94	0x403592d4	2.8370867
95	0x4037ed6d	2.8738663
96	0x4034f860	2.8276596
97	0x403e7e40	2.9764557
98	0x403657d3	2.8491104
99	0x4071174a	3.7670465
100	0x4067d059	3.6220915
101	0x4079be39	3.9022353
102	0x406cf79f	3.7026136
103	0x408125d8	4.0358696
104	0x407293f9	3.7902815
105	0x4063cc7f	3.5593565
106	0x406e50e3	3.723687
107	0x40760674	3.8441439
108	0x406fdd32	3.7478757
109	0x4068452a	3.6292214
110	0x4077917e	3.8682551
111	0x407d4f4b	3.9579647
112	0x408a66d5	4.3250527
113	0x407b767e	3.9291072
114	0x405eda88	3.482088
115	0x40724183	3.7852485
116	0x406004e5	3.5002987
117	0xc06726a4	-3.6117334
118	0xc080c0b8	-4.023525
119	0xc05b0dbf	-3.422714
120	0xc075ba67	-3.839502
121	0xc07f5c0b	-3.9899929
122	0xc077b045	-3.8701336
123	0xc072fa60	-3.7965317
124	0xc061a4d8	-3.5256863
125	0xc0658967	-3.5865114
126	0x406c2baa	3.690165
127	0x4082fe7b	4.0935645
128	0x40874790	4.2274857
129	0x4086edc4	4.216524
130	0x40906d6e	4.513358
131	0x408913b2	4.283654
132	0x40838a53	4.1106353
133	0x408046ef	4.008659
134	0x40688bc3	3.6335304
135	0xc063b6fc	-3.5580435
136	0xc0502a8e	-3.2525973
137	0xc04ea655	-3.228902
138	0xc0538777	-3.305143
139	0xc0650151	-3.5782053
140	0xc06a1108	-3.6572895
141	0xc066a753	-3.6039627
142	0xc06bb545	-3.6829388
143	0xc05e011b	-3.4688175

bias f4 [16]
0	0xbe718f47	-0.23589812
1	0xbf0d419a	-0.55178225
2	0xbf0531e4	-0.5202925
3	0xbd892b8f	-0.06697761
4	0xbe22e1a7	-0.15906392
5	0x3ed93cea	0.42429286
6	0x3ee22d24	0.44175065
7	0xbeafa920	-0.3430872
8	0xbeab1191	-0.3341184
9	0x3ea320bf	0.3186092
10	0x3e42890b	0.1899759
11	0x3e82578e	0.25457424
12	0xbebf76c8	-0.3739531
13	0x3e9d0c1b	0.30673298
14	0xbe31355b	-0.1730551
15	0x3f2f746a	0.6853701

weight f4 [2, 16, 1, 1]
0	0xbf97be2b	-1.185491
1	0xbf5a996e	-0.85390365
2	0x3fdb933d	1.7154309
3	0xc00321f5	-2.0489476
4	0x3f1e4aa9	0.6183267
5	0x3f8a62cb	1.0811399
6	0x3f66b1a9	0.9011484
7	0xbfa4f3a5	-1.2886854
8	0xbf958504	-1.1681218
9	0x3fcb4780	1.5881195
10	0xbeff5376	-0.49868363
11	0xbf40996c	-0.75234103
12	0xbf86f8cf	-1.054468
13	0x3fb604b2	1.4220183
14	0xbf81f8a0	-1.0153999
15	0x3f693be9	0.9110704
16	0x3fc66e7e	1.550247
17	0x3f88e88b	1.0695966
18	0xbfc23fca	-1.5175717
19	0x4008fa4b	2.1402767
20	0xbf1d6ffd	-0.61499006
21	0xbf2cfc2b	-0.6757228
22	0xbf86333c	-1.0484385
23	0x3fbab0ad	1.4585167
24	0x3faa8ac6	1.33236
25	0xbfbf9f23	-1.497044
26	0x3f16ae24	0.5885947
27	0x3f66b943	0.90126437
28	0x3f9d5c8b	1.2293867
29	0xbfb252a4	-1.393147
30	0x3f98619e	1.190479
31	0xbf845d88	-1.0341043

bias f4 [2]
0	0x3f17e270	0.5932989
1	0xbf26844c	-0.6504562
