workshop/notebooks/saved_torch_segmentation_model.pt (torch, 3487 bytes, 4 tensors)

weight f4 [16, 1, 3, 3]
-4.056878 -3.764026 -3.8804357 -4.126849 -3.7571182 -3.9294262 -4.2534313 -3.9589412
-3.9363258 4.1131105 4.2570124 4.003128 4.1494756 4.167502 4.0524077 4.088368
4.0429673 3.971782 4.0536785 3.9510677 3.5864706 3.8508513 3.639332 4.0680656
4.1468945 3.6914034 4.014979 -4.3794155 -4.301326 -4.544402 -4.5786705 -4.3214173
-4.5331235 -4.660683 -4.5962076 -4.692106 3.5772521 3.9872751 3.4294415 3.9239962
3.9257333 3.7872992 3.5277734 3.4848268 3.429137 -4.2523174 -4.401155 -4.2362947
-4.414994 -4.0418296 -4.364652 -4.257681 -4.2881894 -4.2346077 4.2696776 4.5875745
4.2159305 4.714541 4.697438 4.3658056 4.7130423 4.7207313 4.416809 -3.7144537
-3.4788408 -3.6231587 -3.1435184 -3.4104815 -3.4242198 -3.645037 -3.194726 -3.3752239
-4.0796742 -4.45831 -4.1987214 -4.1728926 -4.058343 -4.4982 -3.9774876 -4.079642
-4.207565 4.0946465 4.364015 4.284307 4.361143 4.2061973 4.2153816 4.282364
4.0063114 4.368237 4.1186314 3.9832275 3.876792 4.5245705 4.3328547 4.374787
4.092544 4.083919 3.89773 4.1506853 4.180025 4.1088758 4.4377155 4.02522
4.4335346 4.421857 3.930592 4.193424 2.5487647 3.0998414 2.5066025 2.5539062
2.8735416 2.5668116 3.0489204 2.97288 2.5389721 2.388349 2.238112 2.7483332
2.667142 2.4776 2.73533 2.1516027 2.1666348 2.6343126 4.671031 4.119892
4.579456 4.5495887 4.141049 4.1775985 4.5577607 4.3205767 4.0601077 3.7001975
3.9730213 4.1168694 4.103116 4.0912404 3.9860194 3.8858585 3.9590242 3.8508503
00000000: f2d1 81c0 cde5 70c0 0f59 78c0 260f 84c0
00000010: a074 70c0 b87b 7bc0 1c1c 88c0 4b5f 7dc0
00000020: c3ec 7bc0 9a9e 8340 7239 8840 a019 8040
00000030: 81c8 8440 2d5c 8540 53ad 8140 e9d3 8240
00000040: fd5f 8140 ad31 7e40 bcb7 8140 4bde 7c40
00000050: bc88 6540 5974 7640 d1ea 6840 982d 8240
00000060: 5cb3 8440 f43f 6c40 b57a 8040 2c24 8cc0
00000070: 76a4 89c0 be6b 91c0 7884 92c0 0d49 8ac0
00000080: 590f 91c0 5124 95c0 2214 93c0 bb25 96c0
00000090: b3f1 6440 842f 7f40 f87b 5b40 c122 7b40
000000a0: 373f 7b40 1c63 7240 0ac7 6140 6707 5f40
000000b0: fb76 5b40 fc12 88c0 43d6 8cc0 ba8f 87c0
000000c0: a147 8dc0 ab56 81c0 3bab 8bc0 ec3e 88c0
000000d0: d938 89c0 e881 87c0 33a1 8840 69cd 9240
000000e0: e7e8 8640 85dd 9640 6951 9640 aeb4 8b40
000000f0: 3ed1 9640 3b10 9740 8056 8d40 9cb9 6dc0
00000100: 54a5 5ec0 d5e1 67c0 682f 49c0 5445 5ac0
00000110: 6b26 5bc0 4948 69c0 6476 4cc0 ab03 58c0
00000120: b18c 82c0 7aaa 8ec0 ed5b 86c0 5688 85c0
00000130: f2dd 81c0 41f1 8fc0 288f 7ec0 6d8c 82c0
00000140: 5fa4 86c0 5807 8340 03a6 8b40 0b19 8940
00000150: 7c8e 8b40 2b99 8640 68e4 8640 2009 8940
00000160: b433 8040 99c8 8b40 d4cb 8340 33ed 7e40
00000170: 5c1d 7840 48c9 9040 bfa6 8a40 41fe 8b40
00000180: 1ff6 8240 77af 8240 6974 7940 6ad2 8440
00000190: c4c2 8540 e97b 8340 c401 8e40 9ace 8040
000001a0: 84df 8d40 da7f 8d40 d28e 7b40 8830 8640
000001b0: f61e 2340 cd63 4640 2d6c 2040 3373 2340
000001c0: 1be8 3740 a446 2440 8321 4340 aa43 3e40
000001d0: 857e 2240 b6da 1840 3a3d 0f40 b1e4 2f40
000001e0: 74b2 2a40 0091 1e40 a60f 2f40 dcb3 0940
000001f0: 25aa 0a40 9498 2840 1679 9540 28d6 8340
00000200: e78a 9240 3b96 9140 7983 8440 e3ae 8540
00000210: 2dd9 9140 2a42 8a40 67ec 8140 09d0 6c40
00000220: fb45 7e40 65bd 8340 ba4c 8340 71eb 8240
00000230: f11a 7f40 e8b1 7840 a760 7d40 5574 7640

bias f4 [16]
0.514163 -0.17870915 -0.5028091 0.14564066 0.2527145 0.29955348 -0.16588184 0.5157402
0.036733467 -0.00050484436 -0.093491495 0.23398577 0.1946665 0.19160531 -0.17438202 -0.3765636
00000000: 30a0 033f 88ff 36be 19b8 00bf d322 153e
00000010: cc63 813e 135f 993e eedc 29be 8d07 043f
00000020: d575 163d 8857 04ba 7878 bfbd f799 6f3e
00000030: a856 473e 2f34 443e 3391 32be f2cc c0be

weight f4 [2, 16, 1, 1]
0.6365402 -0.60355985 -0.8078597 2.0098417 -0.6997413 1.1564702 -1.3430797 1.1099924
1.2576206 -1.0448226 -0.90314853 -0.9100798 -0.4582376 -0.36859897 -1.9446285 -1.0782034
-1.0045916 1.0152013 0.9421642 -2.0425704 0.7404826 -0.9285287 1.5282817 -1.1072874
-0.81957114 0.6697103 0.7949328 0.9064548 0.5193972 0.5162095 2.0430965 0.9449961
00000000: 4cf4 223f e682 1abf e5cf 4ebf 3fa1 0040
00000010: 3f22 33bf 3707 943f 09ea abbf 3b14 8e3f
00000020: b6f9 a03f bfbc 85bf be34 67bf fdfa 68bf
00000030: 1e9e eabe 01b9 bcbe 96e9 f8bf 9202 8abf
00000040: 7596 80bf 1ef2 813f ac31 713f 79b9 02c0
00000050: 4590 3d3f 0fb4 6dbf bc9e c33f 98bb 8dbf
00000060: 6acf 51bf 2272 2b3f b780 4b3f 6c0d 683f
00000070: 37f7 043f 4e26 043f 18c2 0240 44eb 713f

bias f4 [2]
0.7206812 -0.46151766
00000000: 907e 383f 0b4c ecbe
