workshop/notebooks/saved_torch_regression_model.pt (torch, 36803 bytes, 9 tensors)

weight f4 [16, 1, 3, 3]
0.32179105 0.13404414 -0.1979655 0.15759367 0.35501823 -0.0071207336 0.23374519 -0.15245001
-0.23308323 0.09105575 -0.22193849 0.08792165 -0.07684374 -0.09377405 -0.0626311 0.04503727
-0.1422426 -0.10303971 -0.24913125 -0.05994528 0.19736457 0.010289994 0.16849242 0.35324362
-0.079078786 0.32670933 0.0973127 0.05494356 -0.060942892 0.221493 -0.30372238 0.3139777
-0.12424038 -0.29438666 0.25136012 -0.12527922 -0.1851469 0.0015604794 -0.23008046 0.247798
0.050088912 -0.09281902 0.010215849 -0.33328593 0.07663295 -0.029591145 -0.21103923 -0.17233637
0.25891468 0.11200254 -0.08786143 0.10668627 -0.18086587 0.21213818 -0.23121366 0.00379679
-0.2919473 0.21808065 0.15871496 -0.27641368 0.01057689 -0.09158343 -0.15183878 -0.31899878
-0.17937188 -0.2323924 -0.088007376 0.27426824 -0.22640447 -0.2251877 0.16218093 -0.26697037
-0.21985786 0.33174297 0.14798878 -0.16893822 -0.25078255 -0.24975091 -0.30857098 0.3017914
0.32684177 -0.19412592 0.14760649 -0.13190746 0.23740207 -0.30155864 -0.06496891 -0.011194365
-0.3316038 0.04736334 0.20209128 0.0086430395 0.18477032 0.038182568 -0.07541895 -0.07537013
-0.19740753 -0.24179241 -0.0514872 0.13254789 -0.25540277 0.002001468 0.17129165 0.022846002
-0.15630989 0.011632673 -0.27819175 -0.12135322 -0.14439076 0.24892297 0.19086061 0.10499489
0.21704791 0.16190124 0.0117510455 -0.28575844 -0.23722365 0.29557273 0.26256183 -0.041483194
0.3145413 0.18813504 -0.09512815 -0.20198937 -0.1327892 -0.1801336 -0.09683317 0.18604371
0.18567654 0.014502488 -0.24345693 0.23231575 0.3212596 0.026479932 -0.15494905 0.31773555
0.16137412 -0.030955464 -0.06179267 -0.29215553 -0.29458904 -0.1389343 0.07392821 -0.31301886
00000000: ccc1 a43e de42 093e 78b7 4abe 3c60 213e
00000010: f3c4 b53e 0b55 e9bb e65a 6f3e db1b 1cbe
00000020: 5fad 6ebe 707b ba3d d843 63be 4410 b43d
00000030: 4060 9dbd 9c0c c0bd bc44 80bd 0079 383d
00000040: 0ba8 11be 7c06 d3bd 431c 7fbe 2f89 75bd
00000050: f019 4a3e 5d97 283c 4789 2c3e 59dc b43e
00000060: 0ff4 a1bd 7246 a73e e14b c73d 800c 613d
00000070: 419f 79bd 10cf 623e 8081 9bbe afc1 a03e
00000080: be71 febd d9b9 96be 46b2 803e 3249 00be
00000090: 2697 3dbe 0089 cc3a 369a 6bbe c2be 7d3e
000000a0: 082a 4d3d e617 bebd 6060 273c 74a4 aabe
000000b0: bcf1 9c3d 2169 f2bc ab1a 58be f278 30be
000000c0: 7790 843e 9661 e53d b2f0 b3bd 557e da3d
000000d0: e734 39be c03a 593e 46c3 6cbe 91d3 783b
000000e0: 1e7a 95be 8950 5f3e 2d86 223e 1886 8dbe
000000f0: b14a 2d3c 1890 bbbd a07b 1bbe cf53 a3be
00000100: 43ad 37be 46f8 6dbe 363d b4bd e36c 8c3e
00000110: 93d6 67be 9b97 66be c212 263e 57b0 88be
00000120: 6b22 61be 37da a93e 5f8a 173e 24fe 2cbe
00000130: 9266 80be b4be 7fbe 04fd 9dbe 6784 9a3e
00000140: ce57 a73e f2c8 46be 2826 173e c012 07be
00000150: 8719 733e e565 9abe 6b0e 85bd 9268 37bc
00000160: f9c7 a9be 1000 423d 04f1 4e3e 899b 0d3c
00000170: 6e34 3d3e 5365 1c3d 4075 9abd a85b 9abd
00000180: 3325 4abe 6e98 77be 3ee4 52bd a2ba 073e
00000190: 27c4 82be 102b 033b 1467 2f3e 8a27 bb3c
000001a0: b30f 20be f896 3e3c 266f 8ebe 0988 f8bd
000001b0: 2cdb 13be aae5 7e3e f770 433e 9007 d73d
000001c0: cf41 5e3e 70c9 253e 7587 403c ee4e 92be
000001d0: c2ea 72be 4f55 973e 816e 863e 48ea 29bd
000001e0: 8f0b a13e 79a6 403e 8cd2 c2bd 4dd6 4ebe
000001f0: e4f9 07be f174 38be 7850 c6bd 3e82 3e3e
00000200: fe21 3e3e d89b 6d3c c64c 79be 2ee4 6d3e
00000210: 237c a43e 71ec d83c f7aa 1ebe 3cae a23e
00000220: 423f 253e 5096 fdbc 501a 7dbd 6995 95be
00000230: 60d4 96be cb44 0ebe ac67 973d 0244 a0be

bias f4 [16]
-0.11913327 -0.20834939 0.04174355 0.095880434 -0.20467362 0.11141395 0.1068492 -0.31639275
0.08362292 -0.027269863 0.26202574 0.20473383 -0.035226043 0.1303317 -0.16240577 0.29480517
00000000: 25fc f3bd 8b59 55be 49fb 2a3d f65c c43d
00000010: f695 51be ff2c e43d c1d3 da3d 3bfe a1be
00000020: 7e42 ab3d 0c65 dfbc 3d28 863e bfa5 513e
00000030: 2f49 10bd ac75 053e b34d 26be b4f0 963e

weight f4 [16, 16, 3, 3]
0.02872631 0.012526997 0.032478124 -0.04189795 -0.06517884 -0.024322683 -0.060974225 -0.0333323
-0.09190057 0.032577507 0.058360554 0.040160306 0.073107965 -0.012621917 0.037565947 0.0324148
-0.048754476 0.0744865 0.054469116 -0.08895698 -0.08106452 -0.039828517 0.031394575 -0.04543052
0.0039115488 0.05043402 0.024726346 -0.013604323 0.064422555 0.0338498 0.048095368 0.00942904
0.06367513 -0.07421901 -0.08755693 -0.07896532 -0.046232384 0.006049156 -0.061504245 -0.053646803
0.06007447 0.003880106 -0.0033074096 -0.0026026368 -0.03948039 -0.024440285 0.009248237 0.05201925
0.0041000256 0.06882007 -0.04905556 -0.040334713 -0.009107364 -0.029359998 0.07277087 -0.07518034
-0.08202788 0.050084952 -0.019014476 0.039310414 -0.07341136 -0.011877175 -0.040953852 0.0027885959
-0.0705336 -0.08088873 0.021967314 -0.01690527 0.077522285 -0.006128855 0.049022205 -0.044347517
-0.060382407 -0.004923972 0.05159231 -0.07096172 -0.0214977 -0.08245512 0.033897255 0.06741152
0.061890062 -0.045808718 -0.07064025 -0.08819986 -0.04637474 -0.0056482977 -0.056200087 -0.021783454
0.053427517 -0.08767661 -0.044961423 0.03210874 -0.06102949 -0.037864335 -0.022842074 -0.036273003
-0.0019054605 0.0048632366 -0.0077747838 -0.08637274 0.03796123 0.0012115557 -0.08842498 0.041698817
0.058892284 0.066453114 -0.0671098 -0.015601496 -0.055906262 -0.08045436 -0.093594596 0.030902144
-0.0817811 0.016462129 -0.031386167 0.018715002 -0.01281055 -0.034425884 -0.0006946941 0.011374146
-0.02042083 0.051460102 0.0349562 0.032863207 -0.04548931 -0.023718184 -0.04144675 -0.08088433
-0.05565043 -0.050835565 -0.05580669 -0.031335182 -0.007957411 -0.01484625 -0.0021239913 -0.07038224
-0.024923103 -0.06710707 0.06394948 -0.008926009 0.056025684 -0.06530702 0.0059988415 0.07202645
0.09056622 0.04071698 0.120189235 0.013017046 0.050228193 0.097456746 0.03293481 0.063085705
0.031951204 -0.08129105 0.065302335 0.02534154 0.046326526 0.0046110973 -0.015193634 0.07548929
-0.012172438 0.032202713 0.08999639 -0.044506297 0.0986485 0.06948882 0.025283838 -0.05427489
0.06548921 0.080470845 0.055808716 0.022525342 -0.06763439 -0.03273976 -0.06867652 -0.016777107
-0.037892614 -0.028631415 0.08602405 -0.029428191 0.053083904 0.051210634 0.046814732 0.065889694
0.052429058 -0.036122464 -0.016075224 -0.08205895 -0.042438924 0.06243015 0.05733089 -0.024386678
-0.0148218 0.005817076 0.07568528 -0.017052924 -0.055286333 0.0338783 -0.020859316 -0.122266844
-0.004770305 -0.009050583 -0.123807654 -0.08809406 -0.053367183 -0.11632374 0.017730737 0.006299205
0.06795234 -0.008119434 -0.011854738 0.028231435 -0.0075879768 0.06466835 -0.025530022 0.05962012
-0.043626208 0.0340785 0.050739985 0.07883216 -0.0117983585 0.033682276 -0.0203787 -0.04294665
-0.019682106 -0.028469354 -0.054976992 -0.09514916 0.05030022 0.054911014 -0.025097767 -0.09271478
-0.03968975 0.05813454 -0.083088435 0.06948748 -0.06768208 -0.01300386 -0.024429329 0.031531613
-0.06411041 -0.004366127 0.034914773 0.03034064 -0.0827525 -0.101899445 -0.03201606 -0.1171346
0.02999153 -0.0354242 -0.09944636 0.0344093 -0.05701581 0.07667565 0.048327945 0.024217537
00000000: 7053 eb3c 093e 4d3c c807 053d 2f9d 2bbd
00000010: 7c7c 85bd 5d40 c7bc 1cc0 79bd 7387 08bd
00000020: 5e36 bcbd fe6f 053d 7a0b 6f3d 227f 243d
00000030: a1b9 953d 28cc 4ebc c0de 193d 62c5 043d
00000040: c6b2 47bd 618c 983d 021b 5f3d 142f b6bd
00000050: 2805 a6bd 3a23 23bd 9997 003d 5a15 3abd
00000060: 732c 803b e793 4e3d e88e ca3c abe4 5ebc
00000070: f9ef 833d 16a6 0a3d a6ff 443d 437c 1a3c
00000080: 1b68 823d 2300 98bd 0c51 b3bd 92b8 a1bd
00000090: 2b5e 3dbd 0038 c63b e0eb 7bbd c0bc 5bbd
000000a0: a610 763d 6049 7e3b 20c1 58bb 0091 2abb
000000b0: 30b6 21bd fe36 c8bc eb85 173c 2312 553d
000000c0: 8259 863b 89f1 8c3d 7cee 48bd 0336 25bd
000000d0: 0e37 15bc 6184 f0bc e508 953d 26f8 99bd
000000e0: 3cfe a7bd e125 4d3d 3fc4 9bbc f503 213d
000000f0: b258 96bd 7c98 42bc 3abf 27bd e0c0 363b
00000100: ec73 90bd fea8 a5bd ccf4 b33c ec7c 8abc
00000110: 01c4 9e3d 90d4 c8bb 82cb 483d bea5 35bd
00000120: 8b53 77bd 4559 a1bb 7552 533d 6154 91bd
00000130: f21b b0bc 3bde a8bd d9d7 0a3d 0d0f 8a3d
00000140: 6f80 7d3d eca1 3bbd d6ab 90bd 21a2 b4bd
00000150: 70f3 3dbd 5b15 b9bb 1032 66bd 3773 b2bc
00000160: d0d6 5a3d cb8f b3bd 7829 38bd 7484 033d
00000170: 0ffa 79bd a217 1bbd 4d1f bbbc 0093 14bd
00000180: a5c0 f9ba c95b 9f3b 9dc3 febb 31e4 b0bd
00000190: 3c7d 1b3d 10cd 9e3a 2818 b5bd 61cc 2a3d
000001a0: 0939 713d 9218 883d dd70 89bd 6b9d 7fbc
000001b0: f7fd 64bd 41c5 a4bd 86ae bfbd 7e26 fd3c
000001c0: d97c a7bd 96db 863c c88e 00bd 3450 993c
000001d0: 57e3 51bc 2802 0dbd 221c 36ba a05a 3a3c
000001e0: 9649 a7bc d4c7 523d 3b2e 0f3d 929b 063d
000001f0: 0053 3abd a34c c2bc 11c4 29bd afa6 a5bd
00000200: b5f1 63bd f438 50bd 8e95 64bd 5259 00bd
00000210: cd5f 02bc b03d 73bc a932 0bbb 9024 90bd
00000220: 892b ccbc 6e6f 89bd f2f7 823d 653e 12bc
00000230: 307b 653d b0bf 85bd ee91 c43b 9a82 933d
00000240: c87a b93d d9c6 263d c625 f63d 7345 553c
00000250: 14bc 4d3d 6797 c73d a7e6 063d 1433 813d
00000260: 44df 023d ec7b a6bd 3bbd 853d 1099 cf3c
00000270: e2c0 3d3d b018 973b b8ee 78bc 219a 9a3d
00000280: e86e 47bc fee6 033d 0750 b83d 3c4c 36bd
00000290: 3a08 ca3d 2850 8e3d 0d20 cf3c 594f 5ebd
000002a0: 351f 863d e6cd a43d ae97 643d 1187 b83c
000002b0: e683 8abd 201a 06bd 46a6 8cbd 2570 89bc
000002c0: 4935 1bbd 6e8c eabc 612d b03d 6413 f1bc
000002d0: 826e 593d 3ec2 513d cec0 3f3d 2df1 863d
000002e0: dabf 563d 26f5 13bd 30b0 83bc 860e a8bd
000002f0: 70d4 2dbd c2b6 7f3d ccd3 6a3d 92c6 c7bc
00000300: 23d7 72bc 2c9d be3b e200 9b3d 93b2 8bbc
00000310: ec73 62bd f9c3 0a3d 28e1 aabc 0a67 fabd
00000320: 3850 9cbb e548 14bc de8e fdbd a96a b4bd
00000330: 8c97 5abd 243b eebd 0d40 913c 9069 ce3b
00000340: 992a 8b3d 6007 05bc 603a 42bc 9c45 e73c
00000350: 90a4 f8bb d770 843d 5624 d1bc 3a34 743d
00000360: 65b1 32bd e695 0b3d bbd4 4f3d c172 a13d
00000370: e74d 41bc 6df6 093d 3bf1 a6bc d4e8 2fbd
00000380: 5e3c a1bc 9038 e9bc 8e2f 61bd 90dd c2bd
00000390: 9a07 4e3d 5fea 603d d599 cdbc 3fe1 bdbd
000003a0: b891 22bd 7c1e 6e3d 452a aabd 744f 8e3d
000003b0: e79c 8abd 240e 55bc 0420 c8bc 4b27 013d
000003c0: 524c 83bd ba11 8fbb cb02 0f3d ef8c f83c
000003d0: 257a a9bd a8b0 d0bd 4623 03bd 44e4 efbd
000003e0: ccb0 f53c f718 11bd 88aa cbbd c4f0 0c3d
000003f0: 6989 69bd 2008 9d3d 86f3 453d db63 c63c

bias f4 [16]
-0.039621245 -0.02429036 -0.006942413 0.015501556 0.011032627 -0.049772073 0.05944445 0.013124172
-0.020645188 -0.027566848 -0.065079324 -0.032239214 -0.031718664 0.023057537 0.040960405 0.08481856
00000000: e349 22bd 94fc c6bc 2e7d e3bb 3dfa 7d3c
00000010: 31c2 343c cddd 4bbd 067c 733d c406 573c
00000020: 1920 a9bc dfd3 e1bc 4f48 85bd 440d 04bd
00000030: 6eeb 01bd 29e3 bc3c 19c6 273d 5ab5 ad3d

weight f4 [16, 16, 3, 3]
0.08666146 0.082594775 -0.021871572 0.052792884 0.0022982804 -0.054896947 -0.050874796 0.087485105
0.08594048 0.095703244 0.06260223 0.07664366 0.05292121 0.08665849 -0.0031039696 -0.042314418
0.022089731 0.013085168 0.03452172 -0.033940654 0.07989802 -0.045773853 0.0006934698 0.09816854
-0.0042825593 0.05719004 0.0032235568 0.041987754 0.02183353 0.049386412 -0.061680853 -0.046266597
-0.061758664 0.04431176 0.013125221 0.005042544 0.041903276 -0.0214464 0.0807501 0.07635737
-0.062191695 0.06720271 0.08739743 0.022750096 0.07606862 0.051888097 -0.056538638 -0.05602371
0.08322496 0.030056093 -0.057064183 0.03729689 0.04275715 -0.016233407 0.007302748 -0.01403952
-0.03618574 0.058926497 0.04646059 0.045342777 0.06448985 0.03798603 0.0356215 0.08518386
-0.007327925 -0.012325288 0.010330436 0.03932074 -0.012024059 0.085122764 0.03945249 0.09047723
0.04107975 0.008013745 0.04057796 -0.03694559 0.032680105 -0.01179154 0.021239795 0.03299498
-0.043637607 0.030232009 -0.022790948 -0.035182014 0.06629672 0.032643322 0.08483742 0.10493856
0.11928892 -0.044748675 0.07545436 0.0077094734 0.067087896 -0.015197791 0.08266016 -0.08289215
-0.055888593 0.06756947 0.054886974 -0.015071252 -0.06469893 0.07527565 -0.06263292 -0.006705525
0.086086474 0.08163744 -0.0010945364 -0.035119586 -0.04908238 0.039491005 0.0224789 0.063106954
-0.028352614 0.04098988 0.014506533 -0.061773796 0.07286211 0.060453624 0.037517775 0.020822804
-0.073027365 0.057418168 0.039434202 -0.012452155 0.03546524 -0.08231253 -0.03561332 0.05253258
-0.05660424 -0.07779817 0.06556371 -0.009547986 0.04861865 0.010726919 -0.0011770627 -0.0022959097
-0.08803711 -0.050816625 -0.0027361345 -0.017291406 -0.01457455 0.034776937 0.019413503 -0.0061024264
0.021009972 0.009789296 0.06411628 -0.029910358 0.029845605 0.08399526 -0.009603794 0.03887512
-0.06253708 -0.042144857 -0.0015445085 0.04667602 -0.061649248 -0.048051555 0.051455233 -0.065737404
-0.048071817 0.002737977 -0.055701535 0.09475463 -0.029771812 0.006594467 0.012904381 0.03528275
0.059364807 0.08798168 0.04743848 0.019821916 -0.022324394 0.0750713 -0.06472369 -0.0382669
0.029765043 0.042276148 0.05777354 -0.005650841 0.033942472 0.000603921 0.07895652 0.009717705
0.084628314 -0.005356778 0.05462008 -0.070748456 -0.06100747 0.04486908 0.036297433 0.02549522
-0.07678909 0.059827324 0.001996179 0.0063142464 0.098009534 -0.03680099 -0.021195736 -0.049492244
0.0028849912 -0.0422595 0.06330703 0.051322903 0.06461869 0.05251206 -0.06532152 0.02651331
0.05381841 -0.0053942828 -0.0020180517 0.01676835 0.08511941 -0.0061924057 0.05177677 -0.054472487
0.0002593636 0.06356048 0.05177221 -0.006876307 0.013743683 0.01134128 -0.03432905 0.07706287
0.00043268784 -0.047220707 -0.025308069 -0.003923956 0.008927147 0.12651429 0.05811163 -0.01029193
0.09167473 0.094175 -0.026425641 0.016298093 -0.075456254 0.034411527 0.07321433 -0.048695676
-0.05591465 0.06433583 0.06787761 0.037905842 -0.023569196 0.0632255 0.049311377 -0.05593758
-0.07858077 -0.05571749 -0.015482375 -0.04177798 -0.046085875 0.004102081 -0.012553461 -0.052902512
00000000: 907b b13d 7327 a93d 032c b3bc 5a3d 583d
00000010: bf9e 163b 9fdb 60bd 1762 50bd 642b b33d
00000020: 9001 b03d 1000 c43d 9935 803d 5af7 9c3d
00000030: e9c3 583d 027a b13d f86b 4bbb e251 2dbd
00000040: 86f5 b43c 2c63 563c a666 0d3d 5b05 0bbd
00000050: 93a1 a33d 5d7d 3bbd f8c9 353a 960c c93d
00000060: b654 8cbb 1a40 6a3d 4f42 533b 5afb 2b3d
00000070: 3bdc b23c 6849 4a3d 10a5 7cbd 0b82 3dbd
00000080: a7f6 7cbd 4080 353d 2b0b 573c ed3b a53b
00000090: c5a2 2b3d 5cb0 afbc 4f60 a53d 4161 9c3d
000000a0: b8bc 7ebd 93a1 893d 6cfd b23d 695e ba3c
000000b0: ddc9 9b3d 9d88 543d 0f95 67bd 1e79 65bd
000000c0: d971 aa3d 3238 f63c 22bc 69bd a0c4 183d
000000d0: 1f22 2f3d ecfb 84bc e44b ef3b 0406 66bc
000000e0: 8037 14bd e95c 713d 764d 3e3d 59b9 393d
000000f0: 4113 843d 3d97 1b3d dae7 113d e074 ae3d
00000100: 171f f0bb 01f0 49bc fd40 293c c90e 213d
00000110: 8f00 45bc d854 ae3d ef98 213d 204c b93d
00000120: 3d43 283d 154c 033c 1335 263d 4254 17bd
00000130: 93db 053d 4e31 41bc 14ff ad3c bf25 073d
00000140: 59bd 32bd 1ea9 f73c 15b4 babc 041b 10bd
00000150: 93c6 873d 01b5 053d 3ebf ad3d 07ea d63d
00000160: c04d f43d 634a 37bd d187 9a3d c09f fc3b
00000170: 6165 893d 2800 79bc bb49 a93d 5cc3 a9bd
00000180: 70eb 64bd dd61 8a3d 2ad1 603d 6aed 76bc
00000190: df80 84bd 1f2a 9a3d b045 80bd 05ba dbbb
000001a0: 1b4e b03d 8831 a73d 8c76 8fba 8ed9 0fbd
000001b0: 9b0a 49bd 52c1 213d ac25 b83c 383e 813d
000001c0: be43 e8bc 01e5 273d cfac 6d3c 8506 7dbd
000001d0: bb38 953d 389e 773d 3dac 193d 9694 aa3c
000001e0: 5f8f 95bd 502f 6b3d c285 213d 2004 4cbc
000001f0: 0044 113d 7993 a8bd 46df 11bd 672c 573d
00000200: d9d9 67bd a654 9fbd 4446 863d 286f 1cbc
00000210: 5924 473d f6bf 2f3c ac47 9aba f976 16bb
00000220: cd4c b4bd 1825 50bd b850 33bb b5a6 8dbc
00000230: 18ca 6ebc 4372 0e3d 1109 9f3c ddf6 c7bb
00000240: 1b1d ac3c 4963 203c 654f 833d 9106 f5bc
00000250: c57e f43c b505 ac3d 3b59 1dbc 853b 1f3d
00000260: 7113 80bd 16a0 2cbd 1b71 caba 5b2f 3f3d
00000270: ec83 7cbd b5d1 44bd b9c2 523d 55a1 86bd
00000280: f4e6 44bd a26f 333b 4b27 64bd b70e c23d
00000290: 04e4 f3bc 6616 d83b e66c 533c a584 103d
000002a0: 8328 733d bd2f b43d da4e 423d 9261 a23c
000002b0: a6e1 b6bc fbbe 993d db8d 84bd c1bd 1cbd
000002c0: d2d5 f33c c129 2d3d f3a3 6c3d b12a b9bb
000002d0: 4307 0b3d 7450 1e3a f5b3 a13d 0237 1f3c
000002e0: 9c51 ad3d e987 afbb 4eb9 5f3d 91e4 90bd
000002f0: f8e2 79bd a4c8 373d 9eac 143d 5adb d03c
00000300: 9943 9dbd 7f0d 753d 54d2 023b bde7 ce3b
00000310: 39b9 c83d a3bc 16bd aea2 adbc 61b8 4abd
00000320: 1f12 3d3b 4c18 2dbd 1ea7 813d f737 523d
00000330: ce56 843d e316 573d 4ac7 85bd 7132 d93c
00000340: b170 5c3d 86c2 b0bb 4a41 04bb c75d 893c
00000350: 1653 ae3d aae9 cabb e113 543d 8b1e 5fbd
00000360: 31fb 8739 ff2b 823d 190f 543d a552 e1bb
00000370: 2f2d 613c c7d0 393c 9e9c 0cbd 23d3 9d3d
00000380: 61da e239 806a 41bd de52 cfbc 8794 80bb
00000390: 2b43 123c f68c 013e 7606 6e3d 7c9f 28bc
000003a0: f6bf bb3d d3de c03d 967a d8bc 9483 853c
000003b0: cf88 9abd 1af3 0c3d 65f1 953d 1e75 47bd
000003c0: c306 65bd 81c2 833d 6b03 8b3d 2843 1b3d
000003d0: 3014 c1bc 5f7c 813d bafa 493d ce1e 65bd
000003e0: f4ee a0bd 0638 64bd caa9 7dbc 631f 2bbd
000003f0: 8bc4 3cbd c06a 863b 08ad 4dbc 4eb0 58bd

bias f4 [16]
0.022957347 -0.047454566 -0.014079994 -0.008049478 0.069417015 0.03544321 0.04228519 0.019116662
0.079052806 -0.04530413 0.05988489 -0.08957049 0.049104184 0.0076641296 -0.08387894 0.0035660127
00000000: 0c11 bc3c b85f 42bd c6af 66bc f5e1 03bc
00000010: 822a 8e3d e62c 113d 3c33 2d3d 8c9a 9c3c
00000020: 70e6 a13d d390 39bd dc49 753d bc70 b7bd
00000030: 7821 493d 6123 fb3b b9c8 abbd c4b3 693b

weight f4 [16, 16, 3, 3]
0.061266918 -0.026033988 -0.04452424 -0.021015648 -0.005896151 0.043856263 0.04273096 0.06436199
0.07265889 0.047248363 -0.033422258 -0.06305682 -0.049865317 0.057076294 -0.062163934 -0.012463444
-0.0769633 0.012094138 -0.038557693 0.03294017 0.08467713 -0.0681714 0.02127704 -0.010019505
0.01101135 -0.0021951932 -0.0059584565 -0.03598793 -0.018844675 0.03122508 -0.009338577 -0.028925534
0.028362965 -0.043387964 -0.033672158 -0.008310785 0.017506165 0.05064341 -0.029110879 0.030567378
0.03941569 0.025631625 -0.0015405343 -0.0458388 -0.01198585 0.016492125 -0.07098059 0.08454461
-0.048484467 -0.04163199 0.047219817 0.059598565 -0.064538345 0.034055356 -0.010842003 4.2479027e-05
0.03237941 0.06503763 -0.016314596 -0.027739933 0.010251132 0.008893286 -0.07110918 0.05946715
0.020129995 -0.009593688 -0.026238395 0.02805709 0.030288106 0.056276686 -0.05499406 0.03660528
0.081709325 0.02370481 0.014056204 0.074294455 -0.06284229 -0.051937733 0.046747483 -0.019099407
0.014235473 0.06831037 -0.04140593 -0.056800947 -0.028622646 0.09903181 0.02284973 0.053676844
0.0924257 -0.054739084 -0.039965235 0.052573994 0.05731672 0.05259093 0.087452345 0.060952917
0.0509184 -0.060743026 0.042232748 0.07044532 -0.0396494 0.017649328 -0.061123446 -0.04176852
-0.008081606 0.083580755 -0.04331003 -0.024830602 -0.024774216 0.028443635 -0.07216576 -0.029507162
-0.07041512 2.8784358e-05 0.053004134 0.035473432 0.08441178 -0.024887638 -0.03890587 -0.02541389
0.07947325 0.0454877 0.08043752 -0.07177743 -0.014709275 -0.015454927 0.073622786 -0.019480625
-0.0693777 -0.056005422 -0.05730031 -0.07654007 0.039474204 0.08618052 0.0421157 -0.06800694
0.014029216 -0.0021659757 0.03761779 0.08874938 0.071258284 0.050193444 0.06911083 -0.045754228
0.0627479 0.011915926 -0.048671596 -0.062445633 -0.08238215 -0.038624924 0.03326282 0.06844152
-0.027734786 -0.038545035 0.041848026 0.05848702 -0.021805525 0.015299007 -0.041788004 -0.0055751577
0.07527747 0.07069624 0.012482084 0.03558166 -0.042362314 0.053011082 0.056069408 -0.04828428
-0.020670049 -0.021033287 -0.04915016 0.06326259 0.05668535 0.026819967 -0.034420125 0.04118073
0.042053618 0.033664763 -0.0768913 0.02919177 -0.038071524 -0.057047173 0.044079192 -0.062125098
0.043051146 -0.04346031 -0.04613663 -0.07013565 -0.02365638 0.046045594 -0.023735642 -0.003481187
0.07526838 -0.070188545 -0.025306813 -0.08270063 0.0246616 0.0121058 -0.017008282 -0.044808578
-0.065116316 -0.07831552 0.04172308 -0.07766992 0.067392744 0.047235332 0.059745945 -0.016585328
0.044777215 -0.04739 -0.06427057 0.06293902 -0.0761676 -0.028256468 -0.051297784 -0.020999424
0.009931482 0.015905298 0.019240975 0.069571756 -0.06757963 -0.008700609 -0.07386019 0.060625486
-0.02429878 -0.025649607 0.040325202 -0.023533639 -0.06875233 -0.027051875 -0.04023492 -0.008913778
-0.043639265 0.05703763 0.061408095 0.07002596 -0.009828159 -0.07238653 -0.04418473 -0.00692521
0.016591825 0.046448477 -0.0018861666 0.04458151 -0.060619973 -0.05049048 -0.04188087 0.026444465
-0.07206779 0.0800503 -0.078344636 0.059948184 -0.07140879 0.07764021 -0.046493173 0.05781672
00000000: 05f3 7a3d 3b45 d5bc 0d5f 36bd 0229 acbc
00000010: 8034 c1bb a0a2 333d a906 2f3d 38d0 833d
00000020: 2fce 943d 8087 413d c7e5 08bd ef23 81bd
00000030: 933f 4cbd d5c8 693d 9c9f 7ebd 7933 4cbc
00000040: ef9e 9dbd 7e26 463c acee 1dbd 46ec 063d
00000050: 346b ad3d 729d 8bbd 304d ae3c da28 24bc
00000060: f368 343c 3bdd 0fbb 283f c3bb 1468 13bd
00000070: 2660 9abc bdcb ff3c d500 19bc 3ef5 ecbc
00000080: 7359 e83c 94b7 31bd d1eb 09bd f529 08bc
00000090: 1769 8f3c 776f 4f3d f079 eebc 7068 fa3c
000000a0: 5972 213d 6af9 d13c c1eb c9ba 77c1 3bbd
000000b0: 4c60 44bc 7e1a 873c 465e 91bd b925 ad3d
000000c0: a697 46bd 4e86 2abd 9169 413d a01d 743d
000000d0: ae2c 84bd a17d 0b3d a8a2 31bc 822b 3238
000000e0: 46a0 043d 7332 853d 30a6 85bc db3e e3bc
000000f0: 5df4 273c 25b5 113c b1a1 91bd d493 733d
00000100: a9e7 a43c d82e 1dbc e7f1 d6bc fbd7 e53c
00000110: c31e f83c 6282 663d 7441 61bd 6bef 153d
00000120: 3857 a73d 9730 c23c fe4b 663c b127 983d
00000130: 75b3 80bd a9bc 54bd 4a7a 3f3d 5c76 9cbc
00000140: e73b 693c 4fe6 8b3d 4499 29bd 1ca8 68bd
00000150: 0a7a eabc 31d1 ca3d 5b2f bb3c 40dc 5b3d
00000160: af49 bd3d 1736 60bd 96b2 23bd d457 573d
00000170: f0c4 6a3d 9669 573d 371a b33d c4a9 793d
00000180: d08f 503d aecd 78bd 3ffc 2c3d a345 903d
00000190: 6967 22bd 5395 903c 945c 7abd 7815 2bbd
000001a0: b668 04bc 632c ab3d dc65 31bd 8c69 cbbc
000001b0: 4cf3 cabc a002 e93c a4cb 93bd 01b9 f1bc
000001c0: cd35 90bd f075 f137 dd1a 593d 974c 113d
000001d0: 15e0 ac3d 29e1 cbbc c35b 1fbd ca30 d0bc
000001e0: dfc2 a23d 4f51 3a3d 6dbc a43d 0c00 93bd
000001f0: 2cff 70bc aa36 7dbc 8bc7 963d d595 9fbc
00000200: e515 8ebd f165 65bd bbb3 6abd 0ac1 9cbd
00000210: b4af 213d 6a7f b03d 8381 2c3d 3947 8bbd
00000220: ccda 653c 0bf3 0dbb 1d15 1a3d 3cc2 b53d
00000230: ddef 913d a497 4d3d fb89 8d3d c968 3bbd
00000240: f981 803d 043b 433c de5b 47bd fec6 7fbd
00000250: f9b7 a8bd 2b35 1ebd 983e 083d 112b 8c3d
00000260: 1034 e3bc 66e1 1dbd d668 2b3d 1690 6f3d
00000270: 80a1 b2bc b0a8 7a3c e629 2bbd d0af b6bb
00000280: 132b 9a3d 31c9 903d a881 4c3c 13be 113d
00000290: 1b84 2dbd 2622 593d 09a9 653d bdc5 45bd
000002a0: 3c54 a9bc 004e acbc ae51 49bd d18f 813d
000002b0: e62e 683d 8cb5 db3c 1efc 0cbd 20ad 283d
000002c0: 6a40 2c3d 10e4 093d 3079 9dbd 9423 ef3c
000002d0: e3f0 1bbd 4caa 69bd 628c 343d e376 7ebd
000002e0: 6656 303d 7003 32bd c3f9 3cbd 48a3 8fbd
000002f0: 06cb c1bc 4e9a 3c3d 4071 c2bc a024 64bb
00000300: 4f26 9a3d 03bf 8fbd 3c50 cfbc f35e a9bd
00000310: 2007 ca3c 6857 463c f454 8bbc 3389 37bd
00000320: b45b 85bd e363 a0bd d2e5 2a3d 6811 9fbd
00000330: 3505 8a3d d679 413d 2ab8 743d f4dd 87bc
00000340: 5068 373d 041c 42bd 4aa0 83bd 2ce6 803d
00000350: c2fd 9bbd 1c7a e7bc a01d 52bd fc06 acbc
00000360: a8b7 223c d44b 823c 409f 9d3c a37b 8e3d
00000370: 3067 8abd 008d 0ebc 0344 97bd 6e52 783d
00000380: 3c0e c7bc 201f d2bc 0a2c 253d 9ec9 c0bc
00000390: 06ce 8cbd e59b ddbc 5fcd 24bd 180b 12bc
000003a0: 16bf 32bd 4aa0 693d 0e87 7b3d c569 8f3d
000003b0: 4906 21bc 643f 94bd 0cfb 34bd dfec e2bb
000003c0: 94eb 873c c240 3e3d 4039 f7ba 1a9b 363d
000003d0: a64c 78bd 1bcf 4ebd 468b 2bbd 10a2 d83c
000003e0: 4798 93bd 69f1 a33d 2773 a0bd 3a8c 753d
000003f0: c63e 92bd d501 9f3d a06f 3ebd 3ad1 6c3d

bias f4 [16]
0.047868427 -0.023817914 0.07742546 -0.05541438 0.03713678 -0.069292374 0.0074771424 -0.04118838
-0.011831036 -0.043468263 -0.048191827 -0.05599775 -0.015052774 -0.08017954 -0.027744388 0.027833708
00000000: af11 443d c91d c3bc 3d91 9e3d 30fa 62bd
00000010: bc1c 183d 29e9 8dbd d102 f53b 26b5 28bd
00000020: f6d6 41bc c70b 32bd cb64 45bd e65d 65bd
00000030: e99f 76bc 2c35 a4bd 3348 e3bc 8403 e43c

weight f4 [1, 16, 3, 3]
-0.006712154 0.027349023 -0.07809139 0.025945112 0.06626671 0.054819655 0.085557766 0.009987518
0.064277016 0.013326899 -0.06681428 -0.019013122 0.005956946 -0.07784401 0.04692888 -0.0036679113
-0.052034885 0.015967293 0.07106587 -0.009401234 -0.031158606 0.054005016 0.082587555 0.035358034
-0.014555707 0.06583325 0.046116445 0.039469846 0.050217368 -0.06397027 -0.014067866 0.055455007
0.010127813 -0.060347103 -0.06963038 0.0409979 0.07798785 0.043311782 -0.06846581 0.0681773
-0.025808062 0.04085758 -0.061662197 0.06442552 -0.06329278 -0.03958553 -0.05096118 -0.023167944
-0.08842286 0.023240672 -0.04148981 -0.0025885443 -0.024447504 -0.096950546 -0.0017531452 -0.026858719
0.0024391303 0.10121044 0.105027795 -0.004366868 0.0821011 0.104990266 -0.00408213 0.025915595
-0.017363628 0.0068849856 0.05871287 -0.06640851 0.036465723 0.01251308 -0.007244631 -0.058976274
-0.014177798 -0.0015486669 -0.062048044 -0.06233059 -0.01000221 -0.022853818 -0.042758867 0.0025904782
0.027842926 0.012709414 -0.01849324 -0.06654092 0.04265687 -0.07659781 0.07856382 -0.0039578844
0.047733203 -0.049129475 -0.04744665 -0.051481448 0.041313805 0.015290357 0.043292485 0.0003536865
-0.018964171 0.08161878 0.04211656 0.079390995 0.028063186 0.012194835 0.018374681 -0.032805692
0.033651702 -0.016541809 -0.011636965 0.04096184 0.19912356 0.20578468 0.20105717 0.06376642
0.15287122 0.1610735 0.08748781 0.05168078 0.061784577 -0.055480853 0.041030176 0.047928285
0.036154676 -0.08871027 -0.01031102 0.055430114 0.0006953014 0.027422491 -0.02398949 0.06373198
0.040333085 -0.04106461 -0.022161173 -0.066206 0.00014289754 0.08270115 -0.032451924 0.071852446
-0.04703698 0.015834298 -0.06783144 0.013730593 0.03771995 -0.07653682 0.08537262 0.022999441
00000000: a1f1 dbbb 0f0b e03c 61ee 9fbd d88a d43c
00000010: d7b6 873d 938a 603d e938 af3d b0a2 233c
00000020: aba3 833d 1159 5a3c edd5 88bd 68c1 9bbc
00000030: 7c32 c33b ae6c 9fbd 7f38 403d 5761 70bb
00000040: 8822 55bd d7cd 823c fc8a 913d a207 1abc
00000050: 5540 ffbc 5d34 5d3d aa23 a93d 96d3 103d
00000060: 0f7b 6ebc 95d3 863d 99e4 3c3d 22ab 213d
00000070: bab0 4d3d d802 83bd e87c 66bc ca24 633d
00000080: 20ef 253c 862e 77bd 5f9a 8ebd 6aed 273d
00000090: 18b8 9f3d b267 313d cd37 8cbd 8aa0 8b3d
000000a0: 6e6b d3bc 475a 273d 8091 7cbd 87f1 833d
000000b0: a59f 81bd 7024 22bd acbc 50bd b3ca bdbc
000000c0: 0b17 b5bd 3963 be3c 38f1 29bd 91a4 29bb
000000d0: 2246 c8bc 028e c6bd cbc9 e5ba d106 dcbc
000000e0: d1d9 1f3b 6b47 cf3d d018 d73d f217 8fbb
000000f0: 9f24 a83d 2305 d73d 63c3 85bb f14c d43c
00000100: 2b3e 8ebc 729b e13b e87c 703d 2f01 88bd
00000110: 155d 153d a903 4d3c 5f64 edbb 1b91 71bd
00000120: ff49 68bc a3fc caba 1726 7ebd 5c4e 7fbd
00000130: 4fe0 23bc ee37 bbbc ec23 2fbd 03c5 293b
00000140: d916 e43c 253b 503c 237f 97bc 9b46 88bd
00000150: f8b8 2e3d 50df 9cbd 11e6 a03d 24b1 81bb
00000160: e483 433d fd3b 49bd 6b57 42bd 36de 52bd
00000170: aa38 293d 6884 7a3c 7653 313d 006f b939
00000180: c05a 9bbc bf27 a73d 6a82 2c3d bf97 a23d
00000190: c4e4 e53c d8cc 473c 8086 963c 435f 06bd
000001a0: 5ed6 093d b082 87bc f8a8 3ebc 9ac7 273d
000001b0: 0ce7 4b3e 38b9 523e eee1 4d3e f897 823d
000001c0: 468a 1c3e 74f0 243e cf2c b33d 3aaf 533d
000001d0: d311 7d3d e43f 63bd 420f 283d 7350 443d
000001e0: ed16 143d bbad b5bd 8def 28bc b00a 633d
000001f0: e344 363a 22a5 e03c 9b85 c4bc ea85 823d
00000200: 4e34 253d 5d33 28bd 598b b5bc 0397 87bd
00000210: c4d6 1539 385f a93d 4fec 04bd 6027 933d
00000220: d9a9 40bd eeb6 813c 36eb 8abd 48f6 603c
00000230: 3c80 1a3d 56bf 9cbd d7d7 ae3d 5369 bc3c
