workshop/notebooks/models/saved_torch_segmentation_model.pt (torch, 4201 bytes, 4 tensors)

weight f4 [16, 1, 3, 3]
0	0xc05df677	-3.468168
1	0xc07e1ba0	-3.970436
2	0xc07fbf16	-3.996038
3	0xc070d6d4	-3.763112
4	0xc08b1a5d	-4.346968
5	0xc0791ece	-3.8925052
6	0xc0800c15	-4.001475
7	0xc08007f6	-4.000972
8	0xc06ad89a	-3.6694703
9	0xc0817c8a	-4.0464525
10	0xc07cd028	-3.9502048
11	0xc073636f	-3.802944
12	0xc08a62be	-4.3245535
13	0xc0948f35	-4.6424813
14	0xc08c6d61	-4.388352
15	0xc083be56	-4.1169844
16	0xc078cf5a	-3.8876557
17	0xc0874ff8	-4.228512
18	0x407d5f4e	3.958942
19	0x407be521	3.93586
20	0x4086e295	4.215159
21	0x407d0c1d	3.9538643
22	0x4082eb25	4.091204
23	0x408b3f77	4.351497
24	0x406d3743	3.706498
25	0x4081585b	4.0420356
26	0x40848d20	4.142227
27	0xc0755391	-3.8332255
28	0xc079621b	-3.896613
29	0xc050af0f	-3.2606847
30	0xc06d5c4d	-3.7087586
31	0xc07339a3	-3.8003929
32	0xc07b66b5	-3.9281437
33	0xc05608a6	-3.3442779
34	0xc062e82d	-3.545421
35	0xc05c19c6	-3.439073
36	0xc06031a6	-3.5030303
37	0xc0871b87	-4.2221103
38	0xc0805bc2	-4.011201
39	0xc0782a7b	-3.8775928
40	0xc0756a43	-3.8346107
41	0xc077beb4	-3.8710146
42	0xc06838e7	-3.628473
43	0xc07af8ff	-3.9214475
44	0xc070b3b6	-3.7609687
45	0x404c4598	3.1917477
46	0x404b22d0	3.1739998
47	0x404d556e	3.2083392
48	0x4059e8ea	3.404841
49	0x406ad0e9	3.6690009
50	0x405365b9	3.3030837
51	0x40503663	3.2533195
52	0x403ea5f9	2.9788802
53	0x4055d78f	3.3412817
54	0xc06ccdfb	-3.700072
55	0xc06cef60	-3.7021103
56	0xc06a1fd7	-3.6581933
57	0xc07b0d7e	-3.9226985
58	0xc08096d3	-4.018411
59	0xc07ebc51	-3.980244
60	0xc065324e	-3.5811954
61	0xc06cf918	-3.7027035
62	0xc06f5d7c	-3.7400808
63	0xc02334d0	-2.5500984
64	0xc02af794	-2.671361
65	0xc04107bc	-3.016097
66	0xc03fcbee	-2.9968219
67	0xc056eea0	-3.3583145
68	0xc031e080	-2.7793274
69	0xc04915c9	-3.1419547
70	0xc03d45af	-2.9573781
71	0xc0313443	-2.7688148
72	0xc0834aa3	-4.102861
73	0xc07bac4c	-3.9323912
74	0xc07f2765	-3.9867795
75	0xc073e099	-3.8105834
76	0xc082cfc4	-4.087862
77	0xc07a51b6	-3.9112372
78	0xc06fd1e9	-3.747187
79	0xc08154b0	-4.041588
80	0xc082a0ff	-4.082153
81	0xc07f2875	-3.9868443
82	0xc088a7e5	-4.270495
83	0xc081f020	-4.060562
84	0xc070d144	-3.7627726
85	0xc07cba02	-3.948853
86	0xc0893963	-4.288255
87	0xc0712b0e	-3.7682528
88	0xc0708bc3	-3.7585304
89	0xc079b7c8	-3.901842
90	0xc09ae8b8	-4.840908
91	0xc09b1add	-4.847029
92	0xc0921f10	-4.566292
93	0xc0a134c7	-5.0376925
94	0xc0ad2592	-5.410836
95	0xc0a0a4df	-5.020126
96	0xc099a1cc	-4.8010006
97	0xc09b5ff8	-4.855465
98	0xc099115e	-4.78337
99	0xc090e63a	-4.528104
100	0xc09a57eb	-4.823232
101	0xc09fa146	-4.9884367
102	0xc0984c35	-4.7593026
103	0xc0abb7f7	-5.3662066
104	0xc0996445	-4.79349
105	0xc099dc34	-4.8081303
106	0xc0a33d88	-5.101261
107	0xc0954443	-4.6645827
108	0xc082d79c	-4.0888195
109	0xc09432e2	-4.6312113
110	0xc07a8974	-3.9146395
111	0xc08e57ff	-4.4482417
112	0xc093f3c4	-4.6235065
113	0xc087c87c	-4.243223
114	0xc089fcd9	-4.312115
115	0xc093114a	-4.5958605
116	0xc09145f3	-4.5397887
117	0xc062c4e1	-3.5432665
118	0xc0725794	-3.7865953
119	0xc067b9ae	-3.620708
120	0xc06cc0d1	-3.6992686
121	0xc06aff9d	-3.6718514
122	0xc071d15e	-3.7784038
123	0xc06fd899	-3.747595
124	0xc06ce605	-3.7015393
125	0xc06cdc71	-3.7009547
126	0x4010c13a	2.2617936
127	0x4014ce4c	2.3250914
128	0x3ffe82ea	1.9883702
129	0x40116881	2.2720034
130	0x402f6f9a	2.7411866
131	0x400e278f	2.2211645
132	0x401db39e	2.464088
133	0x400c6da2	2.1941915
134	0x40112c86	2.2683425
135	0xc07751c5	-3.8643658
136	0xc06545c7	-3.5823839
137	0xc07c38ab	-3.9409587
138	0xc0776e91	-3.8661234
139	0xc0708771	-3.7582667
140	0xc07bbd73	-3.933438
141	0xc060fd65	-3.515466
142	0xc064222e	-3.5645862
143	0xc06f3208	-3.7374287

bias f4 [16]
0	0x3e941e9e	0.2892961
1	0xbd88b8db	-0.066758834
2	0xbeb16a1c	-0.34651268
3	0x3f194baf	0.5988111
4	0xbe20dadd	-0.1570849
5	0x3e28dec4	0.16491228
6	0x3f179e6f	0.59226125
7	0xbe13ded9	-0.14440478
8	0xbe0f86ee	-0.14016315
9	0x3ef4cc09	0.47811916
10	0x3e4109d1	0.18851401
11	0x3e374f4b	0.17901342
12	0x3e55e9af	0.20889924
13	0x3f0c6ede	0.5485667
14	0x3e33dedc	0.17565483
15	0xbe34368b	-0.17598931

weight f4 [2, 16, 1, 1]
0	0x3fa9c7af	1.3264064
1	0x3f8dd989	1.1082011
2	0xbf719d5e	-0.9438075
3	0x3f8c6152	1.09672
4	0x3f468dd9	0.7756019
5	0xbf352f69	-0.7077547
6	0x3f900a8d	1.125322
7	0x3f1a7952	0.6034137
8	0x3f65b81e	0.89734066
9	0x3f91b9ef	1.1384867
10	0x400de3b3	2.2170227
11	0x40217f07	2.5233781
12	0x3febd7ea	1.8425267
13	0x3f8dea87	1.1087197
14	0xbec3b19b	-0.3822144
15	0x3f70137a	0.9377972
16	0xbfae4b2b	-1.361669
17	0xbf940f29	-1.1567127
18	0x3f9a6690	1.206255
19	0xbf89710e	-1.0737627
20	0xbf77a044	-0.9672892
21	0x3f184372	0.59477913
22	0xbf816673	-1.010939
23	0xbf12220d	-0.5708321
24	0xbf8990cd	-1.0747315
25	0xbf4ce620	-0.8003864
26	0xc00a0f1c	-2.1571722
27	0xc02e825d	-2.7267067
28	0xbfbfe2c7	-1.4991082
29	0xbf8161f8	-1.0108023
30	0x3efe5b6f	0.49679133
31	0xbf274d79	-0.6535259

bias f4 [2]
0	0x3f2421ae	0.6411389
1	0xbf3f0378	-0.7461467
