workshop/notebooks/models/saved_torch_regression_model.pt (torch, 36803 bytes, 9 tensors)

weight f4 [16, 1, 3, 3]
00000000: 32f2 11be 29e5 633e 99a3 3b3e ece0 cdbd
00000010: ffaa a23e 805e 50be d630 403e dab5 2bbd
00000020: f110 c53d c1fa 633d 106c a0be d780 83be
00000030: 7fc3 033e cfe2 143e 60e6 893e fcf7 babd
00000040: 6b97 843d 2647 89be b5e2 b63e 6bef a03e
00000050: 5f05 913e 86c6 1cbd 64dc 193d b50a 38be
00000060: 6760 513c 92a6 80be 5684 553e 85d6 f5bc
00000070: a13f 833c 4ce8 18bd a1f9 3cbe 4390 c43e
00000080: 3b58 6e3e b6f1 30be 70f6 23be 6c53 303e
00000090: 4c18 83bd c437 96bd 00b6 4e3c f0ba b0bc
000000a0: a605 cabd 103a f83c 60f9 043d e744 873e
000000b0: a018 c4bd ad0c fb3d 0048 e1bd 15b8 9d3e
000000c0: 30ca a33e 7ba7 f03d 4e60 ba3e b468 80bd
000000d0: 19e5 bbbd f56c 713d 70e8 debd 8ed2 ac3e
000000e0: b628 9fbe db42 f0bd 91db a03e 0b60 003e
000000f0: 46de edbd aa63 053d 47cf 073e b0d8 85be
00000100: 4a38 193d 2896 8a3d de5e efbb 2587 413e
00000110: 9d6b 87be 9917 413d 973c 1e3e 31a3 a43d
00000120: 5a91 b9bd a298 08bd 7cc6 873e 418c 073e
00000130: f1c7 5f3c b72f edbd 2608 80be 90a1 7e3e
00000140: 515e 95be 301c 5abe 98f2 4c3d ce10 38be
00000150: a886 1e3d 80fe bcbc afab 83be e8a1 183e
00000160: c84c 1dbe 422d 173e 573e 573e 9a86 583d
00000170: ae0f 8b3e 342c 64be ea44 303d 9f67 ae3e
00000180: 12df 383e 065f 90be 9b64 1c3e 715e 2cbe
00000190: 6880 a73e f834 8c3e 50cf 8cbc 1f25 01be
000001a0: 78be a23e 3bcf 26be 7f78 663e d78b 65be
000001b0: fb74 8c3e 6216 a83e 9d0b c23c ec95 f13d
000001c0: 5f61 60be 94c9 1abd 50da 6fbe 09c2 aa3d
000001d0: 9318 203e 28e7 5cbe 6269 2a3e 40cb b53d
000001e0: 2f0f 163e cfde 9cbe cc1c 63bd b7a9 103b
000001f0: c896 4abe b604 f2bd 16d0 9fbe 0dc0 a33e
00000200: 8f37 233e a01a 123e 7dde 10be 28ee 0fbe
00000210: 5b86 813e c154 6c3e 441d 8cbe a4fb fe3d
00000220: 3835 513e b395 9abe bd04 a8bc 48d4 863e
00000230: f01d 8b3e fb4d 493e de10 873e f30c 19be
-0.14252546 0.22255386 0.18324126 -0.10052666 0.31771085 -0.20348549 0.1876863 -0.041921474
0.09622372 0.05565906 -0.31332445 -0.25684234 0.12867545 0.14539646 0.26933575 -0.091293305
0.06474193 -0.26812094 0.3571984 0.3143266 0.2832441 -0.038275264 0.037563697 -0.17972834
0.012779332 -0.25127083 0.20851263 -0.030009517 0.016021552 -0.03733091 -0.18454601 0.38391313
0.23275845 -0.17279705 -0.16011977 0.17219323 -0.06401119 -0.07334855 0.012616634 -0.021573514
-0.098643586 0.030301124 0.032464385 0.26419756 -0.09575009 0.12258277 -0.11000061 0.30804506
0.31990194 0.11750694 0.364016 -0.062699705 -0.09174556 0.0589418 -0.10884178 0.3375439
-0.31085747 -0.11731502 0.31417516 0.12536637 -0.11614661 0.03256575 0.13262664 -0.26141882
0.037407197 0.06766921 -0.00730501 0.1889921 -0.2644929 0.047141645 0.154528 0.08038939
-0.09060927 -0.033348687 0.2651862 0.13237096 0.01365851 -0.115813665 -0.25006217 0.24866319
-0.2917352 -0.21299815 0.050036043 -0.1797516 0.038702637 -0.023070574 -0.25716922 0.14905512
-0.15361321 0.14763358 0.21019875 0.05286274 0.271604 -0.22282487 0.04303447 0.34063432
0.18053845 -0.28197497 0.15272753 -0.16832902 0.32715154 0.27384162 -0.017188698 -0.12611817
0.3178594 -0.1628999 0.22506903 -0.22416626 0.27433 0.32829577 0.023687178 0.117961735
-0.21912144 -0.037789896 -0.23423123 0.083377905 0.15634374 -0.21572554 0.16641763 0.088766575
0.1465423 -0.3063874 -0.055447385 0.0022073814 -0.19784081 -0.11817305 -0.31213444 0.3198246
0.15939163 0.14267969 -0.14147373 -0.14055693 0.25297818 0.23079206 -0.27366078 0.124503404
0.20430458 -0.30192336 -0.020510072 0.26333833 0.27171278 0.19658653 0.26380056 -0.14946346

bias f4 [16]
00000000: 3f82 c93d 7ad0 303e ee83 3cbe a6dc f6bd
00000010: dfd9 86be 876c 54be 303a 443e 2c59 943d
00000020: a780 3f3c 5054 2cbe bf4e 2f3e 6bfe 22be
00000030: 9a77 9f3e 9c06 04be 4c55 6a3d 5bfa 15be
0.098392956 0.17267027 -0.18409702 -0.12053804 -0.26338097 -0.20744525 0.19162822 0.07243571
0.011688388 -0.16829038 0.17119883 -0.15917365 0.31145936 -0.12893146 0.05721025 -0.14646284

weight f4 [16, 16, 3, 3]
00000000: ca16 343c a432 48bd 9b18 a13d 35ab 4fbb
00000010: db2c a73d 0608 56bd df24 3dbd 6c9c 363d
00000020: d8ef 2abd b41b a73c b502 e33c 8314 91bd
00000030: 9915 533d 8f0e 8dbd 6add babd 9a71 86bd
00000040: c9b3 93bd c70d 18bd 0361 61ba 19a8 abbc
00000050: ecab e43b a5fb 253d bc04 bf3d 02a7 583d
00000060: 500c 3ebd 33f9 55bc b14a a73d cecb 823d
00000070: 1b22 993d 3a2b 4cbd 19d6 c8bd 2499 7d3d
00000080: b104 b039 b8e1 8b3d 5a61 6d3b dcca 47bd
00000090: 6c2e d43c 804c eebc 9b29 9e3d e6d7 7f3d
000000a0: 7a39 95bd dcd7 a4bc 80e1 04bc acac 91bd
000000b0: a81a 253c b107 e93d 7fdd 0a3e 7314 603d
000000c0: 578a efbc bab2 ee3c 7816 ca3d 9fce 323c
000000d0: 7087 183d 84a8 b03d c063 51bd ff5c 09bd
000000e0: 2bc6 64bd c551 e6bc 9aeb 12bd fe93 11bb
000000f0: 504e f63c 833a 80bd b031 0e3d b4a0 9abc
00000100: 9ba5 3d3d b64d 6bbd 54c1 04bd 35cb 70bd
00000110: ff7b 1d3c d733 513d 660a 95bd 9665 973c
00000120: 4a49 b5bd 6225 86bd 7303 023d c7c2 0cbd
00000130: 07bc 363d b4eb 2a3d 25ff 4abc bd24 0abd
00000140: 25f8 4cbd 4e14 3d3d 01b7 973d 3cc9 8cbc
00000150: bec6 8bbd faf7 323d 10fa ec3b 200a 363c
00000160: 4a2a 0a3d b26b 3d3d 30c5 c33b fe18 ac3d
00000170: 6a28 31bd 5a91 32bd 47e9 963d b546 953c
00000180: 820b 593d 1f3d 283d 94a9 d13b 779f 57bd
00000190: b5d2 bb3c 3a69 dc3d dbf7 2e3c 358e 883d
000001a0: 552a e23d e9f4 f63c b564 263d ec62 1d3c
000001b0: 42ac 5dbd ee34 98bc d218 e43c a231 72bd
000001c0: 4a60 b03c 9564 443d b6ce 66bc 2c75 c33a
000001d0: 67fa 333d c363 83bd 57ff a63d 6550 a1bd
000001e0: 2937 773c b521 3e3c c8ad 1abc 7775 163d
000001f0: a7f1 77bd b440 903d 28b3 34bc c8a3 6d3d
00000200: 2ded 1e3d c082 3c39 4782 a63d 6433 45bd
00000210: ff48 55bd afa9 0abd e29d 49bd 86fe 19bc
00000220: 4523 acba f49b ba3d a9e8 7c3d b6a1 a43d
00000230: aff8 ee3b 46ef 1bbd 0566 d13d 1ed8 3e3d
00000240: bff5 943d 3a4f dabc d583 97ba aa1c 99bd
00000250: 4f6d 1e3d 2367 7f3d 55c5 49bd ce74 40bd
00000260: 4953 f93c 6cc1 21bc f41f 7fbd 273d 09ba
00000270: cf68 4ebd 40c1 6e3d 690f d43b 0be7 82bb
00000280: 7065 6ebd dc50 8a3d 45f1 6a3d ffac cb3d
00000290: 8e06 be3c 759a e83d 6976 e63c 6e32 cfbc
000002a0: cba1 c03d 4b7f 533b f132 c73d a7f0 8d3d
000002b0: 32e2 7cbd 123f 43bd 70eb bfbc 1586 073d
000002c0: 3693 223d 234f 77bd 8193 b4bd 454b 89bd
000002d0: 0083 3bbd b866 5cbc 82a2 6b3d 3b71 a2bd
000002e0: 803f 36bd 2c97 d8bc dd8e 873d 8846 4ebc
000002f0: 2846 603c 063e 993d 9d3c 423d 16ad a43b
00000300: 7c74 e23d 2392 593d d8ca 6b3c 9543 cb3d
00000310: 443c 1ebd c9c9 99bb a72a e6bb b9fc 87bd
00000320: 2615 963c ca24 20bd 384d 22bd 3915 a53d
00000330: 10cf 5c3c d84c 183d 056b 773d 9c22 503c
00000340: 7021 abbc f88e b73c 51f7 5bbd 34d0 33bd
00000350: de5c 7c3d 044c 6fbd 0cc1 1e39 8964 303d
00000360: e360 03be 7bd1 b2bd 0d22 56bd c725 a9bc
00000370: f85b b5bd 8f25 ab3c 165b bcbd 1d11 36bc
00000380: 3799 ebbd 9c5a a5bd 77c3 9fbd a0eb 643c
00000390: 0ac1 2c3d a0dc 09bb d80d 2dbc e6b4 70bd
000003a0: 13ca 54bd a244 2c3d e0e2 833d dc13 ac3b
000003b0: 0833 7bbc 7abe 833c 680e 213d 164f cebb
000003c0: 611d 2a3c 5e15 debc 2fca 96bd 21df 993c
000003d0: 56d4 4e3d 91e6 833d 2fbf 2b3c bc69 d6bc
000003e0: 7c73 25bd ac2c 333d 19f4 2cbb 6bcf 753d
000003f0: 2ebb 96bd 0e71 7c3d e9cd 26ba ce1d 8a3d
0.010991761 -0.04887642 0.07866021 -0.003168774 0.081628524 -0.052253745 -0.04617774 0.04458277
-0.04173264 0.020398952 0.027711252 -0.070839904 0.05153427 -0.068875425 -0.09124263 -0.065646365
-0.07212026 -0.037122514 -0.0008597525 -0.020954179 0.0069785025 0.04052319 0.09327075 0.052893646
-0.04639846 -0.013059902 0.08168543 0.06386529 0.07477208 -0.04984591 -0.09806461 0.061913624
0.0003357283 0.06830162 0.0036221356 -0.048777446 0.025901042 -0.029089212 0.07722779 0.062461756
-0.072863534 -0.020122461 -0.008110404 -0.07113013 0.010077156 0.1137842 0.13561057 0.054707002
-0.02924077 0.029137958 0.09867567 0.01091352 0.03723854 0.08625892 -0.05112052 -0.033535954
-0.05585305 -0.028115163 -0.03586922 -0.0022213454 0.03006664 -0.0626116 0.034715354 -0.018875457
0.04630051 -0.057447158 -0.032410935 -0.058787543 0.0096120825 0.05107483 -0.07277374 0.018481057
-0.088518694 -0.06550099 0.03174157 -0.03436544 0.04461291 0.04172869 -0.012389933 -0.033726443
-0.050041337 0.046161942 0.07407952 -0.0171858 -0.068250164 0.04369352 0.007231958 0.011110812
0.033731736 0.046245284 0.0059744343 0.084032044 -0.043251432 -0.04359565 0.07368713 0.018222192
0.05298949 0.041073915 0.006398389 -0.052642312 0.022927621 0.10762258 0.010679211 0.06667749
0.110432304 0.03014608 0.040623385 0.009606104 -0.054119356 -0.018579926 0.027843866 -0.059129365
0.02153029 0.047947485 -0.01408737 0.0014912239 0.043939974 -0.064155124 0.08154171 -0.07876662
0.015088835 0.011604716 -0.009440847 0.036733117 -0.060533192 0.07043591 -0.011029042 0.058017522
0.038800407 0.00017977785 0.08130317 -0.048144713 -0.052071568 -0.03385323 -0.049222834 -0.009399062
-0.001313307 0.09111777 0.06174532 0.080386564 0.007292829 -0.038069986 0.10224537 0.046592824
0.07273435 -0.026649106 -0.0011559675 -0.0747617 0.038678464 0.06235422 -0.049260456 -0.046986394
0.030435221 -0.0098727755 -0.062286332 -0.00052352477 -0.050392922 0.058289766 0.0064715636 -0.0039948276
-0.058202207 0.06753704 0.057359 0.09945106 0.023196485 0.11357585 0.028132634 -0.025292601
0.094058596 0.0032271917 0.09726513 0.069306664 -0.061739154 -0.04766757 -0.023427695 0.033086855
0.039691173 -0.060378205 -0.08817197 -0.0670381 -0.04577923 -0.013452224 0.057528026 -0.07931753
-0.044494152 -0.026439272 0.06619046 -0.012590058 0.013688602 0.07482533 0.047421087 0.0050255163
0.11057374 0.053117882 0.014391623 0.099249996 -0.038631693 -0.004693244 -0.0070241275 -0.0664
0.018320631 -0.039097585 -0.039624423 0.080606885 0.013477102 0.03718266 0.060404796 0.012703564
-0.020889968 0.02240704 -0.053702656 -0.04389973 0.061612003 -0.058422104 0.0001513997 0.043064628
-0.12829928 -0.087313615 -0.052278567 -0.020647896 -0.08855432 0.020891933 -0.09197061 -0.011112479
-0.11503833 -0.08073923 -0.07800954 0.013972193 0.042176284 -0.0021036044 -0.010562383 -0.05876627
-0.051950525 0.04205764 0.06439757 0.005251391 -0.015331991 0.016082037 0.03932038 -0.006296049
0.010382981 -0.027109798 -0.07362782 0.018783154 0.050495468 0.064404614 0.010482593 -0.026173465
-0.040393338 0.043743774 -0.002639061 0.060012262 -0.073599204 0.061631255 -0.00063630805 0.06743966

bias f4 [16]
00000000: 4b8d 3d3d dc79 8c3d 369b 7a3d 8aaf 7abd
00000010: 7eb9 30bd 65c0 9e3c cab1 58bd 375e 89bd
00000020: df41 8c3c eea4 90bc 0d37 df3c 821a 5a3b
00000030: fd8e 95ba 0b22 413d f194 c1bc 8483 cc3c
0.046277326 0.0685918 0.061183177 -0.061202563 -0.04314565 0.01937885 -0.052903928 -0.06707423
0.017121254 -0.01765677 0.02724793 0.003327996 -0.0011410412 0.047151607 -0.023630591 0.024965055

weight f4 [16, 16, 3, 3]
00000000: e804 d33d 0f39 d13d 958e 85bb 6bac 80bc
00000010: f420 a7bb 45b8 02bc dedd ef3d 6b92 f33d
00000020: 0f64 703a 7ab6 39bd a90e 853d c844 433d
00000030: 2358 e43c f3c3 1bbd e142 603d e6bf 643d
00000040: 3335 2c3d 0266 87bd 5c19 80bd d073 a93d
00000050: 21a3 f1bc 41f9 163d d5db 913d 419e 30bb
00000060: 80b9 93bd f6b4 143b b3cb a93c 9dc5 f03c
00000070: 924d 95bc c29d 713d 0784 c63d 97cb ba3d
00000080: bed9 d7bc c66d 6dbd c3ff 91bd a81e 87bd
00000090: 3021 613d 63da 2dbc 0f57 e53c d0d0 393c
000000a0: 48f9 b73d 36b5 aa3d fa11 753b 3945 e93b
000000b0: 36d5 8bbd 3994 153d 6399 8ebd f341 3bbd
000000c0: ad5d fa3c 781b f6bc e5a8 193d 917b 40bc
000000d0: 49ba 723d 9b4d 0ebd 8f4c 9ebd 4e4f bdbc
000000e0: 5f40 f63c df1b 9b3c 9cd3 39bd 6dee 013d
000000f0: cfb7 793d 4a2a 6a3d d1aa 8a3d ecba 98bc
00000100: 7919 363d ab79 243d f6b3 d63a 9f22 f9bc
00000110: 79f0 0e3d eda6 1b3d 685d 233d e0e3 0bbd
00000120: 9d7b 10bd 7fa8 ad3c 6147 7f3c a2a4 563d
00000130: 76b0 c63c 9233 023d 9841 9fbc c2d2 963d
00000140: 3556 86bc 8ccc 943c 3f7f 84bd 7ba7 983b
00000150: b019 4d3b 0cb7 b43d 8f2a 6cbc 8f2f de3c
00000160: 9370 643d e5f2 2e3d 3389 353d a179 613d
00000170: b65e 6dbd 387b 9ebc 4043 863c b53c 91bd
00000180: 8d97 553d 851c bcbc 370e 3d3d 3a62 a3bc
00000190: 7220 463d e634 babc 7ccf 83bd 4589 7e3d
000001a0: d6fd 70bd 9c6d 633d 219e 643d 40f2 c5ba
000001b0: a7a3 42bd d684 20bd 1af7 e83b c2fe 4f3d
000001c0: edc1 28bd eaf6 3e3d 46b8 023d 5438 333c
000001d0: 0a1c 643d 4c83 db3c 5a54 273d 3cb1 aa3d
000001e0: 7cab 9ebd 0440 3e3d 4304 373d 1429 143d
000001f0: 02db 5abd cad2 08bd f51b 7cbb 336b cd3c
00000200: 9d82 94bd 6819 fe3c c686 3d3d 34ff 823c
00000210: fc44 55bc 449c 4dbc 9999 993d 0d9b 883d
00000220: 0139 aa3d 48e5 2c3c c0c2 f33b ece9 b73c
00000230: 2ad4 033d 083a 623c 7ac6 483d 6271 493d
00000240: 3e54 423d 71e9 993d 6152 d8bc f348 79bc
00000250: 5750 a9bb 9984 163d 69c4 373d 6f4e 893d
00000260: 9861 97bd 8992 6b3d 60ec 8dbd f26a 44bd
00000270: ff81 e1bc a135 56bc faf7 a03c 665e 903d
00000280: 650b 463d 8f46 a4bd 2492 6f3d 27c0 323b
00000290: ae53 4ebd 40f6 553d 517a 873d e74a 36bd
000002a0: c3b4 45bc fb43 b1bc bd62 543c 482c 0c3d
000002b0: 64e0 d03c 7012 b33d 1c93 bf3d 533f e73c
000002c0: 5a5f e3bc 5bbd 453d ad22 b3bc 0356 08bd
000002d0: 64ff 2abd 3c37 e4bc a05e 9a3c 9c6f 46bd
000002e0: 5ca9 933d 81be 5b3c 2ae8 94bd 0535 2f3d
000002f0: c567 b83d 906a 863d 1e6e a63d 5765 0bbb
00000300: 8b13 f43c 6ce7 c0bc 1822 3cbd 30ee 98bc
00000310: 2674 5ebd 2718 843d 712c 84bd f1ff 933d
00000320: 2b6a ef3c 91cb 823c 0ac1 0e3d 5819 ca3c
00000330: 4d0a 9c3d 5f3b 10bb bf36 8bbc 7859 04bd
00000340: 4c3c e33b 98fe 8c3d 3144 543d 6ebf 813d
00000350: 0587 1c3c 2bcd 9cbc 997c 54bc 5d11 9b3c
00000360: 5d85 24bd fd4d 59bb 46f9 d4bc 1ae6 743d
00000370: 1d0a 7bbc 9dda c83a 7508 b23d 5367 033d
00000380: 3567 5b3d 05c3 2c3d 29a9 76bd 1dd4 de3c
00000390: c090 9ebc 1062 423c b10d 1abd c629 b53c
000003a0: d0b4 f3bb ed85 ce3c b8f3 00bb c46a 9ebc
000003b0: e7b0 99bd cf28 423c 1f9d c83c 047f e63c
000003c0: 1bfe 96bd fcfd 213d 6b9e 953d 74d1 973d
000003d0: 5d89 163c 9058 d03c 4f79 713b 05f6 50bd
000003e0: c84f 0abd 67c8 37bd 50da a5bd e07e 21bd
000003f0: 9ba5 98bd d4a3 8ebd 4840 a23d 9213 4ebd
0.1030367 0.10215961 -0.004075835 -0.015707215 -0.005100364 -0.007978504 0.1171224 0.118931614
0.00091701833 -0.04534004 0.06496937 0.047673017 0.027874058 -0.03802867 0.05475128 0.05584707
0.042042922 -0.06611253 -0.06254837 0.082740426 -0.029496731 0.0368588 0.07122008 -0.0026949795
-0.07213116 0.002269087 0.020727014 0.029391104 -0.018225465 0.05898834 0.09693151 0.09120863
-0.026348945 -0.057966016 -0.07128861 -0.06597644 0.05496329 -0.0106111495 0.027995614 0.011341289
0.089830935 0.083353445 0.0037394748 0.0071188477 -0.06827776 0.03651831 -0.0696285 -0.04571719
0.030562246 -0.030042395 0.037514586 -0.0117482105 0.059259687 -0.03474198 -0.07729446 -0.023109104
0.030059991 0.018934188 -0.045367822 0.03172152 0.06096631 0.057169236 0.06770862 -0.018643819
0.044457886 0.040155094 0.0016380537 -0.030412016 0.0348973 0.03800099 0.039884 -0.034152865
-0.035274137 0.02119851 0.015580983 0.0524031 0.024254065 0.031787463 -0.019440457 0.073644176
-0.016398529 0.018163942 -0.06469583 0.004658637 0.0031295829 0.08823976 -0.014414444 0.027122287
0.05577142 0.04271211 0.044320296 0.055047635 -0.05795165 -0.019345865 0.01638949 -0.07091657
0.052146483 -0.022962818 0.046156134 -0.019944299 0.048370786 -0.022730302 -0.06436059 0.06214263
-0.058835827 0.055524454 0.055814866 -0.0015102103 -0.047519352 -0.039189182 0.007109535 0.050780065
-0.041200567 0.046622194 0.031914018 0.010938723 0.055690803 0.026796006 0.04085193 0.08334586
-0.07747552 0.04644777 0.0446818 0.036171988 -0.05343152 -0.03340415 -0.0038468812 0.02507553
-0.07251475 0.031017974 0.046271108 0.015990831 -0.013016935 -0.012549464 0.074999996 0.066701986
0.08311654 0.010552712 0.0074389875 0.02245041 0.032184757 0.013807781 0.049017407 0.049180396
0.04744362 0.075152285 -0.026406469 -0.015215146 -0.005167048 0.03674755 0.044865046 0.06704413
-0.073916614 0.057512794 -0.069298506 -0.047953553 -0.027527807 -0.01307431 0.019649494 0.07049255
0.04835071 -0.080212705 0.05848898 0.0027275176 -0.050372772 0.052236795 0.06615127 -0.044505026
-0.012067023 -0.02163886 0.012962994 0.034221917 0.025497623 0.08743751 0.09354231 0.028228438
-0.027755428 0.048276287 -0.02186712 -0.033285152 -0.041747466 -0.027858369 0.018843949 -0.048446283
0.07210037 0.013412119 -0.07270844 0.042775173 0.090041675 0.06563294 0.08126472 -0.002127012
0.029794475 -0.02354785 -0.04593095 -0.018668264 -0.054309987 0.06449919 -0.06453789 0.07226551
0.02922543 0.015966209 0.034852065 0.024670288 0.07619152 -0.0022008044 -0.016993878 -0.032311887
0.006934678 0.068844974 0.051822845 0.063353404 0.009553676 -0.0191408 -0.0129691595 0.018929178
-0.040166248 -0.0033158057 -0.02599777 0.059789754 -0.015322235 0.0015323941 0.08693019 0.03208096
0.053565223 0.042178173 -0.060219917 0.027200753 -0.019356132 0.0118642 -0.037610713 0.022114646
-0.007437326 0.025210345 -0.0019676518 -0.01933802 -0.075044446 0.01185055 0.024488984 0.028136738
-0.073726855 0.03954886 0.073056065 0.07412997 0.009188023 0.025432855 0.0036845987 -0.051015873
-0.03376749 -0.044868853 -0.080982804 -0.039427638 -0.07453462 -0.069648415 0.07922417 -0.050311632

bias f4 [16]
00000000: 08e5 8d3d d20e 25bd ba23 67bc 8160 983c
00000010: 4539 613d f91f 8d3d 8a6b 1ebc 9b36 8bbd
00000020: 1dfa 8f3d e2c0 a03d fb94 afbd ada3 63bd
00000030: e8f9 8a3d 1480 3ebd a324 503d e1e6 553b
0.0692845 -0.040297337 -0.014107639 0.018600704 0.054986257 0.06890864 -0.009669194 -0.067975245
0.07030127 0.078492895 -0.08573338 -0.055576015 0.06785947 -0.046508864 0.05081619 0.0032638835

weight f4 [16, 16, 3, 3]
00000000: 74f3 eabc 59a7 4abc 0e6a 293d aacf b9b9
00000010: ef99 733b 0a91 253d 5aaa a13d 463f c83d
00000020: 7107 b03d 4f8c 5a3d 9de5 b2bc 5f4e a7bc
00000030: acf9 9ebc df0f 323c 8e1e 24bd 5dea 803d
00000040: 7ebe 62bd d459 463d b3ee 26bc c07c 96bd
00000050: a5eb 0b3d 9c01 333c a014 9f3d f4fd 66bd
00000060: 01af 8bbd 128f 503c 0885 643d 2aee 973d
00000070: d09c 323c ce68 e33c aa1f a73d 263e 7c3d
00000080: 7b4e b63c c851 af3d 4358 88bc d6b5 ad3d
00000090: a021 60bd a884 673d c107 04bd 3755 523d
000000a0: 3c20 d3bc 377f 1b3c c82a 95bd 9fa0 29bd
000000b0: d63d 8d3d e656 f93c 5764 193d 04aa 8cbc
000000c0: 50ad a83d 9e09 8f3d 1a10 1abd 56e6 f3b9
000000d0: c96d bd3d d302 163c f6fb b03d 309c 873d
000000e0: 01d7 80bd 4ed2 773d 7902 87bc 7f01 38bd
000000f0: c4e1 87bd 3b12 513d 7166 90bd e85f 85bd
00000100: 4e4c 3abd cae5 513d 7158 893d 881b 69bd
00000110: fe09 3a3d 32d7 343d 347b ea3c d049 b53b
00000120: 4493 693c ba61 c4bc 6221 a23d 0811 4bbb
00000130: e364 f03c d550 803d ba9f 233c b712 553d
00000140: 1a85 a83d 18fc 94bc 8bb6 3c3d 2a83 b23c
00000150: 65f2 17bd c470 9a3a 8b3a 733b 0b9c a63d
00000160: f7a1 89bd 77b7 32bd 1f09 96bd 8485 523d
00000170: 7e34 7d3d ff85 783d 8afa 783d 7332 553d
00000180: 0ad2 bfbc 93fc 53bd 897e 0d3c b608 c53d
00000190: 09c2 78bd 60e4 65bc 2cb3 c53d 9cac 0abd
000001a0: 674f 8b3c 95e8 a23d be92 5f3d 9c4a 3e3d
000001b0: 95be 5cbd 5243 e3bc 78b0 5dbd b55a 94bc
000001c0: 03dc e7bc 7cbe a83d 1e56 ad3d 8ef3 54bd
000001d0: 3db9 0fbd 0c66 893c 7fcc 343e b38f 0b3e
000001e0: 0c01 813c 6ca2 f03d a9f9 793d 0ee0 973d
000001f0: b719 1f3e 2196 273e f307 aabc 1d70 8a3d
00000200: 966e 03bd 9979 78bd 4337 973d 7b2b ec3c
00000210: 13a1 79bd 47c5 81bc cff6 0bbd bbe4 47bd
00000220: f73e 88bd a8ca 6cbd e319 843c 87e4 c33d
00000230: 7730 513c abf4 20bd 5807 60bd fa8b 34bd
00000240: afeb 6f3d 5f4c 163b 71f2 ef3c 6ee0 063c
00000250: e5cb 593d 48de c5bc 5270 733c 14ff 04bd
00000260: 182d 8abd 6bbe 593d 76ec b9bc 37b9 593d
00000270: 5212 86bd f249 9ebd 0754 cfbc 9e40 5cbd
00000280: 66a8 0bbd 59b5 7d3d fdb2 873c 663d 073d
00000290: 47c8 1abd 6441 2a3b 3e2c 5ebd 7592 e43c
000002a0: 2b8c c03a 813a cabc c45a a4bd 4d14 3a3d
000002b0: 4b91 62bd 4487 a73c 0f2b b3bd 5ff4 16bd
000002c0: 675c 313d 540d 4f3c 40db 783b c754 51bd
000002d0: 4143 6dbd c567 d2bc 9d83 e3bb 311d 20bd
000002e0: e4da 32bd 75a3 74bd e62b 2b3c 34cb 09bd
000002f0: 9428 143d 5f00 7dbd cdc6 63bd f3f5 dcbc
00000300: 2af7 81bd 8e0b b7bd ba6e a2bd bd86 6fbd
00000310: ce44 b6bd a0ab d3b9 4b0a 40bd 72f5 9b3d
00000320: c552 723d 8404 113d 74f0 5e3b 9488 3dbd
00000330: df98 4c3d 83dd d53c 85c1 6fbc f045 8ebd
00000340: 2ad4 383d 4452 b3bd f223 bc3c 002f 83bd
00000350: fed3 ae3c 1d72 9bbd 20ae 9dbc e9cf babd
00000360: a9fb cebc 9d09 e43c e683 543c 24b1 81bd
00000370: 47c0 21bd a68c aebd 7a68 893d 2bb8 36bd
00000380: c61b 723d e6f8 6abd 912e 2fbd 2644 83bd
00000390: 7afe aebd f5d2 c5bd d46a b1bd e3fe c0bd
000003a0: a9a3 233d 93f4 393d 67af 063d a693 45bd
000003b0: b696 923d 233b 963d 1f17 253c 3978 7fbd
000003c0: 9c7f 90bd 1361 033d 49d2 5ebd e220 023d
000003d0: 07ec 87bd a8a4 7b3c 30b8 0fbd 0c0e 0dbd
000003e0: 5230 133d 6401 8fbd 3ff1 2cbd f0b0 78bd
000003f0: 6370 6ebd 381c d13c 3c02 523c 1d93 52bc
-0.02868054 -0.012369 0.041360907 -0.00035440671 0.003717061 0.040421523 0.0789382 0.097776935
0.08595169 0.053356465 -0.021838004 -0.020423112 -0.019406162 0.010868042 -0.0400682 0.06294701
-0.05535745 0.04842551 -0.010188746 -0.07348013 0.034160275 0.010925677 0.07767606 -0.056394532
-0.06820489 0.012729423 0.05579093 0.07418473 0.010901645 0.027759936 0.08160336 0.061582707
0.02225422 0.085605204 -0.016643649 0.08481948 -0.054719567 0.056522995 -0.032233957 0.0513508
-0.025772206 0.00949078 -0.072835505 -0.041412946 0.0689656 0.030436944 0.037449207 -0.017170914
0.08236182 0.06984256 -0.037613012 -0.00046520185 0.092494555 0.009155947 0.08641808 0.06621587
-0.06291009 0.060503297 -0.016480671 -0.0449233 -0.06634858 0.051042777 -0.07050789 -0.06512433
-0.045482926 0.051244535 0.06706322 -0.05691102 0.045419686 0.04415054 0.028623201 0.005532481
0.014256302 -0.02397238 0.079165235 -0.0030985493 0.029344982 0.062654175 0.009986812 0.0520198
0.08228512 -0.018186614 0.046072524 0.02179106 -0.0370964 0.0011782874 0.0037113752 0.081352316
-0.067203455 -0.043631997 -0.073259585 0.05139686 0.06181764 0.060674664 0.060785808 0.052050065
-0.023415584 -0.051754545 0.008636125 0.09620802 -0.06073192 -0.0140315 0.09653315 -0.03385602
0.017005635 0.07954518 0.054583304 0.04645787 -0.05389269 -0.027742062 -0.05412337 -0.018109659
-0.028303152 0.08239457 0.08463691 -0.051990084 -0.035088766 0.016772293 0.17656134 0.13629036
0.01574757 0.117497295 0.06102911 0.07415782 0.15537153 0.16365863 -0.020755744 0.06759665
-0.032087885 -0.06066284 0.07383587 0.028829327 -0.060944628 -0.01584114 -0.034170922 -0.04880212
-0.066526346 -0.057810456 0.016125625 0.095650725 0.012767903 -0.039295834 -0.054694504 -0.044078805
0.058574375 0.0022933704 0.02929041 0.008232219 0.053172965 -0.024153844 0.014858322 -0.032469824
-0.06746882 0.053160112 -0.022695761 0.05315515 -0.06546463 -0.07728948 -0.025308622 -0.05377256
-0.034096144 0.061940525 0.01656484 0.03301754 -0.037788656 0.0025978917 -0.05424141 0.027901867
0.0014690211 -0.0246861 -0.08025125 0.045429517 -0.055314343 0.020450242 -0.08748447 -0.036854144
0.043301012 0.012637455 0.003797248 -0.05110624 -0.057925466 -0.025684247 -0.0069431798 -0.03909034
-0.04366578 -0.059726197 0.010447478 -0.033641055 0.03617151 -0.061767932 -0.055609513 -0.026972746
-0.06345971 -0.08937751 -0.07931276 -0.058478106 -0.08899842 -0.00040372927 -0.046884816 0.07615174
0.059160966 0.035404697 0.0034017833 -0.04627283 0.049950477 0.026106602 -0.014633541 -0.06946933
0.04512421 -0.08755925 0.022966359 -0.06405449 0.02134132 -0.07590125 -0.019248068 -0.09121687
-0.025266485 0.027836615 0.0129709 -0.06332615 -0.03949001 -0.0852292 0.067093804 -0.04460923
0.059108518 -0.057366274 -0.04276902 -0.06409483 -0.08544631 -0.096593775 -0.08662954 -0.09423616
0.039951 0.04539926 0.03288212 -0.04823651 0.07157652 0.07335498 0.010076313 -0.062370513
-0.070555896 0.032075 -0.054399762 0.03176964 -0.066368155 0.015359081 -0.035087764 -0.034437224
0.035934754 -0.06982687 -0.042222258 -0.060715616 -0.05821265 0.025526151 0.0128179155 -0.012852457

bias f4 [16]
00000000: 148b 48bd 9c95 803d 2bb0 433d 9c8f edbc
00000010: c76f 5bbd e604 6dba bf76 383d a36d ce3c
00000020: fae6 8a3d 692c 0c3d ba46 edba 7815 27bc
00000030: 3f5c a43d bb60 8fbd dbfc 133d 2db0 86bd
-0.04896076 0.06278536 0.04777543 -0.028999142 -0.053573396 -0.00090415624 0.04503512 0.025198763
0.067823365 0.03422204 -0.0018102743 -0.01019799 0.08025407 -0.07000872 0.036129814 -0.065765716

weight f4 [1, 16, 3, 3]
00000000: b02c 283c 988f 893d 9090 7a3d d809 a33d
00000010: faf8 33bd a23c 02bc ee55 163d bd6f 4d3d
00000020: 6aac 273b 0807 053c 0727 36bc 61cc 33bc
00000030: 4203 8d3d 1dbf 42bd 7c8e eebc b047 9abd
00000040: 0d2e 9fbc d279 fabb 7c55 a0ba c815 2f3e
00000050: 7227 ba3d 177b d23d 139b d63c 213a 4d3c
00000060: 1fdb b93d cdc0 423d bd5b c13d 7562 87bd
00000070: 226e b03d 6735 8fbd 87de 6e3d 99b4 d6bc
00000080: 0d5b f1bc 1c7d af3c 4eff f2bc 6e4b dcbc
00000090: a771 95bd c024 853d 9239 4b3d 5459 323c
000000a0: 8ec7 36bd 753e 2abd df68 2e3d 4ddd c8bc
000000b0: 9b80 9e3d 4cd3 c1ba a57b 40bd 6991 76bd
000000c0: 3a5c 4cbd 4dbe 8fbd f5d4 563b 21ef 993d
000000d0: ca15 c13c 2217 643d b4de 18bc 23dd ea3c
000000e0: f11c 1d3c 171c 8fb9 3e3c 8cbc 6a4e 6f3c
000000f0: da9b 2cbd b8eb 10bd 1500 013d 6a7d 78bd
00000100: f632 833d a950 023d 43bb a03d 1ad9 92bd
00000110: 03b1 6abd 4a21 8eba a715 593c c78e 813d
00000120: dea0 b8bc 6219 32bc 298b c7bc 9f9b 35bc
00000130: 8c36 a13d 9105 4e3d 23ce 893d 4ada 4a3d
00000140: 6c25 fdbb 5a5a d03c 285e a93d 4f59 9d3d
00000150: a40d ecbc 6ad5 b5bc c4a0 8f3d 9ef0 43bd
00000160: 02ee d2bc 1168 773d 3b57 4cbc 82f1 68bb
00000170: ac9e 95b9 319b 8ebd 1184 0b3d 2e77 32bc
00000180: 3727 8abd 9984 52bd bcfa 533d 1315 0b3c
00000190: 0a47 4c3c 0281 a7bd 1091 c0bc ac07 9e3c
000001a0: 16ea 213d 1e9d 8d3d 52d2 483d 449b 8fbd
000001b0: 8037 833d 3f87 7fbd 82d4 80bd 216c df3c
000001c0: 656f a73d 5467 3f3c f669 66bd cc6e 123d
000001d0: 698f 733d 339e 5d3d 4833 3fbd 94d4 aabc
000001e0: 8de1 afbc 14e9 1dbd 0fcc 6ebd f9b6 493d
000001f0: 94de 91bd a860 1bb9 716a 413b 9a0c 7bbd
00000200: dc16 ff3b 2be1 1ebd d681 70bc e735 88bb
00000210: ad48 91bd b189 ac3a 0da8 443d 6f9e 92bd
00000220: d1c2 cf3c d911 483c 3a51 953d b805 1cbd
00000230: a5c1 683d 5dca a1bd b65c 513d 9901 a23d
0.010264561 0.067168415 0.06117302 0.07960862 -0.043938614 -0.007949026 0.036703043 0.05015539
0.0025584945 0.008119352 -0.011117703 -0.010974021 0.06885387 -0.04754554 -0.029120676 -0.075332046
-0.019431138 -0.0076439166 -0.0012232508 0.17098153 0.09089555 0.10277384 0.026196992 0.012526066
0.09074997 0.04754715 0.09441326 -0.06610576 0.08614756 -0.069926076 0.058317687 -0.026209163
-0.029462362 0.021421961 -0.029662754 -0.026891436 -0.07297068 0.0650115 0.04961545 0.010885555
-0.044623904 -0.04156347 0.04258048 -0.024519587 0.07739373 -0.0014787703 -0.046992917 -0.060197268
-0.04989264 -0.07018719 0.003278074 0.07516313 0.02356996 0.055686124 -0.00933044 0.0286699
0.00958942 -0.00027296014 -0.01711857 0.014606098 -0.04214082 -0.03538105 0.03149422 -0.06066648
0.064062044 0.031815205 0.07848217 -0.07170315 -0.057297718 -0.0010843661 0.013249791 0.06326061
-0.022537645 -0.01087031 -0.024358349 -0.011084466 0.07871732 0.050298277 0.067287706 0.049524583
-0.0077254083 0.025433708 0.08269912 0.0768305 -0.028815098 -0.02219649 0.070130855 -0.047836892
-0.025748257 0.06040198 -0.012471969 -0.003554434 -0.00028537714 -0.06963194 0.034061495 -0.010892672
-0.06745761 -0.051395986 0.05175279 0.008488911 0.012468109 -0.08178903 -0.023506671 0.019290768
0.039529882 0.06914733 0.049028702 -0.070120364 0.0640707 -0.06238484 -0.06290533 0.02727324
0.08175544 0.01168235 -0.056253396 0.035750195 0.05946294 0.05410595 -0.046679765 -0.020853318
-0.021469856 -0.03855236 -0.058300074 0.049246762 -0.071225315 -0.00014817959 0.0029512907 -0.061291315
0.0077847075 -0.038788956 -0.014679393 -0.0041568163 -0.0709394 0.0013163594 0.04801183 -0.07159125
0.02536145 0.012211286 0.07290883 -0.03809139 0.0568253 -0.07899926 0.051113807 0.07910461
