workshop/notebooks/models/saved_torch_segmentation_model.pt (torch, 4201 bytes, 4 tensors)

weight f4 [16, 1, 3, 3]
-1.3335708 -1.2636197 -1.6929113 -1.276345 -1.3444915 -1.6733639 -1.1706487 -1.2517657
-1.4536449 3.9491143 4.1703362 3.8553143 4.4343295 4.1399612 4.4665236 4.415749
4.0998473 4.045735 4.041591 4.1231804 3.9586084 3.9785106 4.244436 4.3296266
3.6381369 3.976585 4.044374 4.603266 4.1933866 4.4150224 4.437575 4.967733
4.773152 4.4606504 4.381331 4.506435 4.2687516 4.239002 4.508556 4.7429028
4.92998 4.781595 4.647269 4.2987113 4.32062 -4.9708486 -5.480739 -5.360478
-5.404446 -5.5744667 -5.0827146 -4.8348074 -5.2248693 -5.254589 3.6479824 3.9017415
3.9861062 3.5603466 3.9344 3.8251657 3.9225433 3.4489665 3.4313395 -4.607167
-4.345337 -4.370512 -4.677294 -4.64572 -4.48309 -4.4345245 -4.3218985 -4.4549093
-4.1338615 -4.2867546 -4.0653286 -4.774361 -4.439306 -4.3000636 -4.2751813 -4.7982764
-4.1966553 -3.4399073 -3.3916676 -3.476673 -3.5521708 -3.9724092 -3.9755473 -3.5728076
-3.8028712 -3.7013347 -5.4159636 -5.6757274 -5.119633 -5.0899243 -5.5155926 -5.1926956
-5.1827583 -5.2670093 -5.2169766 4.022667 4.217987 3.5508327 4.208872 4.1271386
4.181671 3.5313742 3.7991629 3.5997202 -4.031526 -4.2385607 -4.060519 -4.162001
-4.2714562 -4.374669 -3.9814513 -4.030445 -4.1341586 5.0162387 4.9454384 4.517802
5.275514 5.412671 4.6410794 5.0579658 4.95898 5.121159 3.2210875 2.9239275
2.7662177 3.2024739 3.3671658 3.3908257 2.9610767 2.9073696 2.741441 -3.7304492
-3.9688272 -3.6009593 -3.5874376 -3.8272338 -4.0489264 -3.9523985 -4.0512934 -3.489759
00000000: 73b2 aabf 4abe a1bf 51b1 d8bf 465f a3bf
00000010: 4c18 acbf ca30 d6bf d1d7 95bf dc39 a0bf
00000020: 0911 babf 4abe 7c40 6573 8540 78bd 7640
00000030: 07e6 8d40 907a 8440 c3ed 8e40 d14d 8d40
00000040: f331 8340 a976 8140 b754 8140 18f1 8340
00000050: d759 7d40 eb9f 7e40 6bd2 8740 4d8c 8a40
00000060: 3cd7 6840 5e80 7e40 836b 8140 f44d 9340
00000070: 3930 8640 dd47 8d40 9d00 8e40 abf7 9e40
00000080: a9bd 9840 a6bd 8e40 dd33 8c40 b734 9040
00000090: 9d99 8840 e8a5 8740 1746 9040 dcc5 9740
000000a0: 65c2 9d40 d402 9940 6db6 9440 0b8f 8940
000000b0: 8542 8a40 3111 9fc0 3762 afc0 0989 abc0
000000c0: 39f1 acc0 0862 b2c0 99a5 a2c0 beb6 9ac0
000000d0: 2132 a7c0 9825 a8c0 8b78 6940 22b6 7940
000000e0: 5d1c 7f40 b8dc 6340 36cd 7b40 84cf 7440
000000f0: f30a 7b40 debb 5c40 119b 5b40 e96d 93c0
00000100: 000d 8bc0 3cdb 8bc0 64ac 95c0 bda9 94c0
00000110: 7975 8fc0 a0e7 8dc0 fe4c 8ac0 9e8e 8ec0
00000120: 9848 84c0 182d 89c0 2c17 82c0 91c7 98c0
00000130: cb0e 8ec0 1f9a 89c0 49ce 88c0 7b8b 99c0
00000140: 004b 86c0 7127 5cc0 1511 59c0 cf81 5ec0
00000150: c456 63c0 f43b 7ec0 5e6f 7ec0 e1a8 64c0
00000160: 3e62 73c0 abe2 6cc0 934f adc0 8f9f b5c0
00000170: 09d4 a3c0 a9e0 a2c0 bc7f b0c0 902a a6c0
00000180: 28d9 a5c0 578b a8c0 79f1 a6c0 b0b9 8040
00000190: c0f9 8640 d840 6340 14af 8640 8511 8440
000001a0: 40d0 8540 0902 6240 7c25 7340 d161 6640
000001b0: 4302 81c0 4aa2 87c0 c6ef 81c0 1d2f 85c0
000001c0: c5af 88c0 4afd 8bc0 19d0 7ec0 68f9 80c0
000001d0: 074b 84c0 0785 a040 0841 9e40 d591 9040
000001e0: 03d1 a840 9a34 ad40 b983 9440 dbda a140
000001f0: f7af 9e40 89e0 a340 4c26 4e40 a121 3b40
00000200: b609 3140 55f5 4c40 a57f 5740 4a03 5940
00000210: 4882 3d40 5812 3a40 c573 2f40 aebf 6ec0
00000220: 4401 7ec0 1e76 66c0 9498 65c0 66f1 74c0
00000230: ce90 81c0 19f4 7cc0 32a4 81c0 3658 5fc0

bias f4 [16]
-0.18730424 -0.34312928 -0.513204 0.021667883 -0.20799725 -0.0777645 -0.46736857 0.04793304
-0.07265883 0.62200713 -0.19034566 -0.47078958 0.32130554 -0.10262189 0.23954715 0.48778695
00000000: afcc 3fbe a4ae afbe 5661 03bf d880 b13c
00000010: 3bfd 54be ff42 9fbd ef4a efbe 6f55 443d
00000020: 27ce 94bd dc3b 1f3f f9e9 42be 550b f1be
00000030: 2982 a43e 6d2b d2bd d94b 753e 36bf f93e

weight f4 [2, 16, 1, 1]
0.2548207 -1.0837116 -1.0068623 -0.9315167 -1.6095971 1.8523979 -1.0098124 1.283029
1.1978581 1.001115 1.5784197 -1.1059059 1.1744236 -2.2081797 -0.6249831 1.1403006
-0.18445003 1.0591079 0.8981903 0.87300247 1.815515 -1.495277 1.1277533 -1.3721474
-0.92643666 -0.917306 -1.8107848 0.9665809 -0.91303444 2.0560849 0.52687865 -1.0440776
00000000: dc77 823e 10b7 8abf dde0 80bf e177 6ebf
00000010: 4707 cebf 601b ed3f 8841 81bf 4b3a a43f
00000020: 6a53 993f 8924 803f a809 ca3f 538e 8dbf
00000030: 8353 963f d152 0dc0 e4fe 1fbf 5ff5 913f
00000040: 78e0 3cbe d990 873f cdef 653f 177d 5f3f
00000050: cc62 e83f 3d65 bfbf 385a 903f 87a2 afbf
00000060: f42a 6dbf 91d4 6abf ccc7 e7bf d971 773f
00000070: a0bc 69bf e596 0340 85e1 063f 56a4 85bf

bias f4 [2]
0.61126935 -0.6815482
00000000: 267c 1c3f f179 2ebf
